lab4/trained_rbm/rbm.vis--hid.bias_h.npy (npy, 4128 bytes, 1 tensors)

array f8 [500]
0.11745411876775767 1.5338840922643946 -2.523677086267402 -0.8166615364093515 -4.231919859761669 -0.1997257472260894 -0.38429438613357636 -2.0354038776602006
-0.2671508739896198 4.3826127233754235 16.657362081596656 -2.2784309008569394 -0.6035500843200267 0.6264533956598692 0.2829709601884572 -12.693293658242313
-0.2529822812576293 -13.114306106160349 -2.059476373508244 9.269228354308165 -1.47851020999281 0.980079442046401 -1.9778061665174576 -0.8188680651306437
0.7524063535772543 0.9995964480041215 1.7623514548107475 -3.7959408177644685 1.3365378408733328 0.8294794864664463 2.879204129508164 -8.734328614872275
0.0013934453528852211 -0.19370590738912408 0.23082032741427508 -0.3525036853112702 1.700585331014692 0.21685176306963683 1.2649280655175716 -5.1253391603832075
8.889233783755168 -7.835445094023113 -0.1666616312685682 -0.020644415431353598 -2.3645979643528707 2.333347131155921 -5.622896703067766 -0.2144463839088177
0.07971676431635728 -2.8533587853963294 -0.13104475028106716 3.514928257043861 1.749613341000149 -2.313336884640162 -0.4389193472652809 6.76165594597604
-0.32221043469932065 -2.2208971024139537 -2.150510623675827 -0.24898061011205425 -1.3044746834952858 1.1657749456674624 -0.0425132428050586 11.873690977928488
-3.142793714193981 1.1351115623587875 -0.24611683428642822 0.5641905191005621 -0.051338744503338696 0.04364045698847707 0.2163040694211542 3.4331057815973165
1.2005991381345205 -0.13071285786589273 -2.056930618827405 -0.33682475606143886 0.011987628242738758 -0.3038815081055729 -3.7282243748213455 0.3231263281428596
0.15695899312532974 -0.41789317765931555 -0.14324490469129142 -0.196027101594801 1.3201853064624836 -0.8887787769209698 2.1052684312419094 1.2585830396829902
-0.39960826410908723 -1.514545681467947 -0.7013838010300876 0.5353450192414548 5.16814829713333 -1.1304039948434983 -1.318118993684247 3.1414784475404534
-0.1800648847116081 0.4792717752277556 -0.2999822264181321 -0.19073566706980596 1.2338438555952305 -2.9790419496013736 0.09245236198311257 -2.9915562191247806
-0.49812135622081555 -0.44634386290826955 4.348770255588282 2.5901287942545808 0.411051477431321 15.897008477838098 1.2143373293957564 -0.2021768031676379
0.4514953653133609 -2.2968137201187755 2.23010343437085 0.17028927470195276 0.26199026944784976 1.8346230526865634 -1.9443066722902782 -0.21433583870613432
0.4136943780145501 1.1552734241610647 0.19543614134332346 -1.6152579744090705 -2.244267404783789 -0.2325461035870132 -0.0170677313261662 14.481417529570578
-2.0509754289061153 -1.570596459949414 -6.1129454509313605 4.094435091657857 1.1620072443817393 3.235076785804912 1.6348856389260076 -0.3046786132895368
-0.444863147192227 -15.214643621274401 -0.10842150207247436 2.3115471089459825 3.358156303648142 -0.4787386358963297 0.3706687062963335 -1.0211110315457959
1.6022377690197396 -0.17335709338548932 -0.3607948204922129 0.8883981902826494 -0.11000280061231309 1.232242668982299 -0.25177993751333744 3.7051060820486024
-0.26275564876060054 0.18202647370827707 -0.5226498340195104 2.3352197437499074 0.8908398550063719 4.364738322140472 1.1110649369147743 -2.2251296615951253
5.398344914267262 0.5569145888974883 -2.4941367300028254 -0.5790883879998024 0.39245629847152497 -3.8343124264928607 -4.007814498757035 2.044025895325404
1.5514578590473869 0.6429916910139064 -2.277945599180403 -2.475766070872387 0.7596072536497165 -0.4037889143250277 -2.031008854882986 -2.3003409027573993
-1.7431828821945003 -1.0782268797982675 1.3365897312209487 -0.5264033874749385 -0.06545114161830506 -0.41954895008230936 0.141603234114785 0.6495051732718555
0.1838492525542465 0.43906543177830737 -3.3245229899095845 0.4482128446739493 -2.342912317366712 1.4575584310323089 -1.2142327124032377 0.9174869530509049
-8.824607154748662 0.41256196897171327 -11.064722336344147 -4.393064885790594 -0.40522590459773644 1.7675642634086763 2.5575227086982717 1.3436288219891346
-1.3975900731287931 -0.27083452905078687 -3.889506847458495 -3.3872966437797474 -2.7899240844380393 2.4095186651144145 0.11821706459334438 0.4987823959234019
-0.2397938329051904 -0.44841487283241954 -3.73022093369363 0.3484825500950943 -2.5212061881494194 0.42126814271866 2.6654292313945604 4.6067516265742485
-1.9091876762457178 -0.1240334843223317 -3.1026763789281526 -2.2579891175129028 1.1972098715937134 1.171699135084024 1.068094480626908 -0.3961174305571182
2.1587947372272 -6.158589021926925 -1.7151184088855838 -0.060834591650758364 2.383723100434322 0.24505009347237494 0.08798633585351177 1.256809616062532
5.303656168193333 -0.4409748668336818 7.4786526301408145 -0.9477737127227559 0.5795717930022575 2.579728438768957 -1.2083441558661812 -1.0418442468357927
-0.026631371630458575 -0.4372935455423752 -2.4491335208739726 6.129849834962561 -1.1574714925302136 0.5141705815363391 -0.2950722539759308 -3.307472062186542
-0.8910160542108294 -2.7364603895039066 14.976872283139768 -1.0624891734088084 -0.26493528202680267 -0.7796538633588193 -3.0358276382480787 -0.19606577293357835
00000000: 3755 e31e 7911 be3f 6315 c20b ca8a f83f
00000010: e976 b99c 7d30 04c0 d8ef d85f 1722 eabf
00000020: 8ae0 5366 7ced 10c0 f1aa 4000 9d90 c9bf
00000030: 10ba 1e7b 4798 d8bf ff9d 05d4 8148 00c0
00000040: e886 b8fa ff18 d1bf 48b9 37a1 cb87 1140
00000050: 8f16 a2e1 48a8 3040 d002 ebfa 393a 02c0
00000060: bfe1 3444 4850 e3bf 2279 dafd e70b e43f
00000070: 7d89 ee3a 321c d23f 9159 e962 f762 29c0
00000080: f503 1e98 dc30 d0bf 3462 7754 863a 2ac0
00000090: 1ad2 b8bf ce79 00c0 a6d1 814c d889 2240
000000a0: 158a 6b52 faa7 f7bf 6e47 e28f cf5c ef3f
000000b0: 5350 3014 18a5 ffbf 7c32 efcc 2a34 eabf
000000c0: 6857 3d7d b613 e83f d203 acb0 b1fc ef3f
000000d0: de85 6770 9732 fc3f 92cc 2e38 165e 0ec0
000000e0: bdad c680 7562 f53f bc70 6290 188b ea3f
000000f0: 38f7 b52c 9c08 0740 6cc9 92eb f977 21c0
00000100: 20bc 0a8e 88d4 563f 189f a3ec 5acb c8bf
00000110: 8987 bf3e 858b cd3f 8c68 089e 6b8f d6bf
00000120: 3a3f ccf6 9835 fb3f 5c65 3b6f ccc1 cb3f
00000130: 5a0c 1336 253d f43f 1204 abe8 5880 14c0
00000140: 1d74 87a6 49c7 2140 4ebb 31eb 7e57 1fc0
00000150: 16f4 e517 2b55 c5bf 72a5 7d44 cf23 95bf
00000160: 87ab 6856 b2ea 02c0 a73d 94e6 b1aa 0240
00000170: 5fd9 21a2 d87d 16c0 6e21 d1a6 fa72 cbbf
00000180: 8583 ae5f 5168 b43f 8c40 58c5 add3 06c0
00000190: 8e84 620a 13c6 c0bf 3c51 beb4 921e 0c40
000001a0: e0da 038f 6afe fb3f b947 c1c4 b681 02c0
000001b0: d281 852c 4117 dcbf 8a15 4b89 ef0b 1b40
000001c0: 68aa dd83 189f d4bf 5831 35b3 65c4 01c0
000001d0: 1e1b f3e9 3e34 01c0 b27b e2bc 98de cfbf
000001e0: bf27 81d8 20df f4bf f434 22a1 03a7 f23f
000001f0: ab40 fdb6 4bc4 a5bf b706 826c 54bf 2740
00000200: d74c e407 7124 09c0 8147 dabd 6a29 f23f
00000210: 62ac 20a5 c180 cfbf 7401 8846 d90d e23f
00000220: 28af 5169 1249 aabf f093 18bf 0a58 a63f
00000230: c0e9 130c daaf cb3f 195a fd29 0077 0b40
00000240: fd4b 1e71 a735 f33f b9b0 d9ec 32bb c0bf
00000250: b809 500a 9874 00c0 7917 f16b 898e d5bf
00000260: 27c7 123a f88c 883f ca0b cb6c cb72 d3bf
00000270: d20f 104d 67d3 0dc0 cc68 f60c 1aae d43f
00000280: 1aa8 2477 3b17 c43f 782b d106 c3be dabf
00000290: b2de 7b5a d955 c2bf 015b 3d83 6a17 c9bf
000002a0: 5da8 bea0 7a1f f53f 6a24 8830 e070 ecbf
000002b0: bee1 abf9 96d7 0040 c5d1 2bf8 2723 f43f
000002c0: c0d4 638a 2e93 d9bf f03e a340 943b f8bf
000002d0: e9c9 eb70 bc71 e6bf 46fe b6e0 8b21 e13f
000002e0: 5243 3411 2fac 1440 e3ed d17f 2216 f2bf
000002f0: acc3 21f1 0317 f5bf 6733 ca73 bf21 0940
00000300: 6c47 7fbb 5d0c c7bf d1f0 1f86 63ac de3f
00000310: 9e37 f6a6 e832 d3bf 896e 1fbe 066a c8bf
00000320: d86e 020e d3bd f33f 8f99 17f2 13d5 07c0
00000330: c0c9 273f f5aa b73f 6e4a ea06 b5ee 07c0
00000340: 9c15 9a65 38e1 dfbf 5a86 7dd9 e590 dcbf
00000350: e546 a607 2465 1140 bd02 fe71 95b8 0440
00000360: 748f 22db aa4e da3f 4719 f9b1 44cb 2f40
00000370: 6c11 c1fa ec6d f33f e1b2 cef2 ede0 c9bf
00000380: d840 14d1 4ce5 dc3f 5c50 27df df5f 02c0
00000390: 888f 2a78 40d7 0140 542b daf8 09cc c53f
000003a0: 0085 c9d5 72c4 d03f 716c bcb3 9d5a fd3f
000003b0: f219 2e50 e11b ffbf 0a42 cd54 5b6f cbbf
000003c0: b423 07fc f779 da3f f85a 6bfc ff7b f23f
000003d0: 3954 c32d 0d04 c93f e80a ebbe 18d8 f9bf
000003e0: 8b33 1878 42f4 01c0 2bf6 db1a 12c4 cdbf
000003f0: 7681 730f 347a 91bf 1874 c25b 7cf6 2c40
00000400: 2469 40ce 6568 00c0 4123 ebc0 2921 f9bf
00000410: bded e7f8 a773 18c0 a00f b997 b360 1040
00000420: ba5a 85e8 9497 f23f aca5 18f0 6fe1 0940
00000430: 3f32 fed7 7d28 fa3f d6a0 f7b9 da7f d3bf
00000440: 4fb8 1847 a378 dcbf 4e56 cbc4 e56d 2ec0
00000450: 10a0 95f5 82c1 bbbf d5b0 2069 0c7e 0240
00000460: 3b33 580d 81dd 0a40 a868 2060 a7a3 debf
00000470: 5e60 cc3c 09b9 d73f 2d2f 6185 7856 f0bf
00000480: 4ab1 2512 c4a2 f93f d065 4fb3 9030 c6bf
00000490: bc22 a528 4317 d7bf b6dd a20a c26d ec3f
000004a0: c329 19bf 2429 bcbf 533c c016 44b7 f33f
000004b0: 4528 5a99 291d d0bf 22e0 54a8 0ea4 0d40
000004c0: d606 9111 fdd0 d0bf 10a8 cabb a44c c73f
000004d0: bdf4 0b25 8cb9 e0bf ea08 63b0 87ae 0240
000004e0: 5639 6795 c281 ec3f d4c3 74f6 7d75 1140
000004f0: 0980 fc06 ecc6 f13f ee48 afc7 10cd 01c0
00000500: 2739 adba e797 1540 235c 3f8b 3ed2 e13f
00000510: 88ea 38f5 fdf3 03c0 f77a fe5e e487 e2bf
00000520: b0d7 c205 011e d93f 4777 53fe abac 0ec0
00000530: 6862 2286 0008 10c0 3fcc a43f 2a5a 0040
00000540: f7b0 db79 c5d2 f83f 9424 904f 6393 e43f
00000550: 2a60 d48a 3b39 02c0 ec8b 1771 5ece 03c0
00000560: 6a5b 07df b34e e83f 90da 6075 add7 d9bf
00000570: e5de 0c92 813f 00c0 03f4 9721 1967 02c0
00000580: f38e dfbb 13e4 fbbf 4a6d 26d4 6a40 f1bf
00000590: e836 fce9 ab62 f53f d8ab b6ea 4bd8 e0bf
000005a0: 448a bcf0 67c1 b0bf 8d2d ebd6 e3d9 dabf
000005b0: 57f2 c305 0e20 c23f 4422 b912 bfc8 e43f
000005c0: 06a9 8e4f 5f88 c73f 4caf 92e5 a519 dc3f
000005d0: c6b1 6382 9f98 0ac0 3064 61ed 84af dc3f
000005e0: 83e2 23d0 48be 02c0 77af 14ca 2852 f73f
000005f0: a015 d847 7f6d f3bf c687 3b99 0d5c ed3f
00000600: e062 b3e8 32a6 21c0 d8a3 1351 6a67 da3f
00000610: 70d6 3b49 2321 26c0 d0b4 f699 7f92 11c0
00000620: 9850 efa1 38ef d9bf 90b2 0e77 f147 fc3f
00000630: 5f17 4577 ce75 0440 5d80 86ef 807f f53f
00000640: b1d6 9468 875c f6bf eea4 3959 5a55 d1bf
00000650: e737 1bc4 b51d 0fc0 9d13 97fb 2e19 0bc0
00000660: 7bdf e7b7 c351 06c0 d624 ceb8 b146 0340
00000670: baed 413a 7943 be3f 30f0 93ff 0cec df3f
00000680: b41d 0e77 90b1 cebf 44bc 764b d4b2 dcbf
00000690: c08c a812 7ed7 0dc0 aca5 f8c0 894d d63f
000006a0: bd98 6426 6e2b 04c0 08b1 f4a7 0ef6 da3f
000006b0: ed22 958f cc52 0540 8db9 634c 506d 1240
000006c0: ee6c 7660 088c febf d5f9 c58e a8c0 bfbf
000006d0: 828b 4cfe 47d2 08c0 d888 3399 5c10 02c0
000006e0: ff17 cf89 c527 f33f 77ff 9e97 47bf f23f
000006f0: 724a f53c ea16 f13f 6f93 67ec fc59 d9bf
00000700: 8757 d92c 3645 0140 1cb9 1a29 65a2 18c0
00000710: f1e5 2e00 2071 fbbf f506 362b b625 afbf
00000720: 5cae b86a dd11 0340 683c ac2c cd5d cf3f
00000730: 2f57 fcc2 4586 b63f 1b97 6466 e41b f43f
00000740: e679 7ea4 f136 1540 ce26 daa5 ee38 dcbf
00000750: 9065 42ea 23ea 1d40 36e3 8489 2954 eebf
00000760: f21e 1425 da8b e23f 2997 e8a9 48a3 0440
00000770: aa20 7cae 6055 f3bf bbf7 7adf 64ab f0bf
00000780: 9c40 cd18 4145 9bbf 10cf 3611 9efc dbbf
00000790: 4387 bd50 d397 03c0 8638 ea5a f784 1840
000007a0: 6283 e7d3 0085 f2bf b071 08dd 1574 e03f
000007b0: f926 32bc 76e2 d2bf f232 9ce9 b375 0ac0
000007c0: ba7c a119 3483 ecbf e6bf 3d58 45e4 05c0
000007d0: 87e8 989a 28f4 2d40 8851 c2a5 f4ff f0bf
000007e0: 5725 f71c b3f4 d0bf 1470 aaa8 ecf2 e8bf
000007f0: 1e8c 3400 6049 08c0 dead 4ee9 ae18 c9bf
