lab4/trained_rbm/rbm.pen+lbl--top.bias_h.npy (npy, 16128 bytes, 1 tensors)

array f8 [2000]
0.5334835532781059 0.0823349581081996 -0.1332299610540878 -0.15222561542134333 -0.09281342423311467 -0.1033610553608986 -0.11621321086475778 2.491062184075237
-0.13339463665017356 1.8713535236071164 -0.13305244784240544 1.1396291106761594 -0.11312432004290043 0.2763057149964705 1.6498569663952976 0.8124489270962078
-0.14088614826875845 -0.13810571627114268 -0.1540731325196951 -0.2140285153716331 -0.13491928119492208 -0.1069610653554186 -0.12920398457558233 -0.12787966677638485
-0.14804652471568713 -0.09071163018401396 -1.0443661794265104 -0.17752391404350723 -0.11797092012754849 -0.15626124166136612 -1.9362224531573669 -0.14046357718858826
-2.0184126468538452 -0.1601815303469852 -0.09248200816012699 -0.22703568808945723 -0.11040272558214616 -0.09619396791673218 -0.08251693287933295 -0.09673502707302095
-0.15311341957713992 -0.23402978763630564 -0.14347968753736084 -0.08017071520729256 -0.12300003341799849 -0.18498559547031437 -0.20622628495525033 -0.15414625382590974
-0.17893448198414275 1.249219698509742 -0.09616957902783374 -0.13897621102918145 -0.09443302311275745 -0.08265675383552733 -0.2079820672888492 -0.10062408828567665
-0.13539303810599326 -0.06722484994505531 -0.0751531634024147 -0.1053848296039313 -0.14650213818023408 -0.12525377724834968 -0.041109631802477196 -0.14494551042447767
-0.2123268657362217 -0.18069192153929228 -0.15361383622867233 1.2998447353922185 -0.07376981087160946 -0.2039299448896892 1.333818825467306 -0.0874212318672072
-0.114706583501404 -0.06670740577409087 -0.16004617390567288 1.030550349749393 -0.08498414064711235 0.9045312949521339 -0.06330318398501988 -0.10269491121944688
-0.08602977564722201 -0.1544676703145684 -0.16155540490546622 -0.1596608853839151 -0.13008103257094333 -1.7677402081788278 -0.37807901589755344 -0.10136942184412759
-0.12801752389352553 -0.20644360077043283 -0.11237845318755275 -0.1557654122728538 -0.13301408345826987 -0.204133623652772 -0.19374383396276293 -0.12582888613793086
-0.11862415300997646 -0.11163090020261782 -0.09757809524535428 -2.3346428253085247 -0.12304428485116777 -0.1538004304182204 -0.1646411609646362 2.1766976383203107
-0.14227946228411192 0.31627547320339133 0.09787252449999459 2.8124221406764285 0.17101241630654476 -0.06532826869675906 -0.2055278490499302 -0.07714109876091525
-0.18549639417410715 -0.07924548017245824 -0.10130003050948864 -0.09866368833204649 -0.19272545050495082 -0.11847939291797889 0.959264189540771 -0.1334700972720368
-0.09177381399602712 -0.19418870066141058 -0.14100472341002765 0.9412101381418809 -0.24073699596954506 -0.0007517947400023824 -0.18073372856487627 -0.12040102177579733
-0.11839878249151062 -0.1470479585795712 -0.3943322197588186 4.722456471072764 -0.049179732928222045 -0.1786025066475162 -0.1668338147904918 -0.10030081807241066
-0.13997511490559905 -0.2577550106493162 -0.08735476281845274 -0.16380288675433596 -1.9430523100546329 -0.1766212659167081 2.508798356126322 -0.23443748224570002
-0.1950206205236514 -0.1679921984783027 -0.1035679739776018 -3.1498386983787925 -0.0910788843536783 -0.09353110930073535 -0.19124754615059578 -0.12984617560495354
-0.13649953504197573 2.178940719316249 -0.14948088809124682 1.1281077282035121 0.3797445259027452 -0.09203239041651883 -0.09818582700640172 -0.1765423956143314
-0.18141906413628756 -0.1575450794242047 -0.15602602354077408 1.3869371192508746 -0.27556220964538597 -0.07504612369371091 -0.20793655342128137 -0.12262961923919899
-4.011934183861589 3.0298629952290317 0.36751913706629463 0.933922694318448 1.8644827635032448 2.9309645785024516 -0.3140268747888361 -0.12252431277154009
-0.2065120173498604 -0.8112615397798231 -0.12437191089723301 -0.09928367354751012 -0.09140046427795748 1.810470437545759 -0.1537952622667279 1.7512763728597833
0.29019709677498207 -0.0939112193200512 1.324928704707229 -0.08682678913832925 -0.13505272352864964 -0.06104028439105209 -0.1479285721661017 -0.10081440011330672
-0.11426527124482466 -0.14326192682682848 -0.10074242478072912 -0.25327186216816255 -0.08948509081056302 -0.11730275296032998 -0.13471517056538082 -0.13483676263604585
-0.19518170518790395 -0.1340678886493165 0.4564843634133062 -0.1449122135046494 -0.14881105702673583 -0.06672399741288738 -0.13576315810466985 -0.16780652720986586
-0.15322805263910377 -0.7607315555879414 -0.19498121622067238 -0.6084387109576741 1.9847076034333053 -0.10413944829867121 -0.18272020017627336 1.6972325073059227
-1.0076273362776333 -0.17062042109097453 2.755630888783014 0.41831041165632565 0.43222460028766296 -0.6133162210881312 -0.10066831177569895 1.3558642833245262
-0.1014468820494377 -0.1530396297664976 -0.09810174098929296 -0.14629124470961594 -0.14259008720190913 1.7398310821161467 -0.21929930123231497 -0.1253738075603326
2.0515324929742285 -0.07894297823949066 -0.18768450273863302 0.6533682343533382 -0.1551837102555797 -0.0853252591021475 -0.10319834601547438 -0.18245436350940994
-0.11063977616200553 -0.1504191011914612 -0.06859743553625067 -0.07230248723985913 -0.10582356524517857 -0.08022643538309529 -0.2802509994088914 -0.5660353618785171
-0.09847746417001804 -0.11952097484746145 -1.104736090045457 -0.10644843049570255 -0.15607481812824317 -0.17842943477183235 -0.12551525048267356 0.23617674307689374
00000000: 1c11 c919 4c12 e13f 526a 6460 e713 b53f
00000010: 7c8e c9ea ad0d c1bf f28f ec03 217c c3bf
00000020: 3004 b6dd 9ec2 b7bf c281 74c0 de75 babf
00000030: 40fc 0624 26c0 bdbf 6a3e a702 b2ed 0340
00000040: 03e9 ef50 1313 c1bf d259 7264 10f1 fd3f
00000050: 6c64 11d4 dc07 c1bf 59c7 febb eb3b f23f
00000060: 326c f726 b7f5 bcbf 2ce5 662a feae d13f
00000070: dfed 1b6b d065 fa3f 518d 71e4 94ff e93f
00000080: 6809 a3ab 8e08 c2bf 2d3a 63b7 72ad c1bf
00000090: 7fa3 ae1c abb8 c3bf 5a5f f750 4965 cbbf
000000a0: 927f 2af6 0845 c1bf 6897 a5e5 cc61 bbbf
000000b0: ffeb 2194 c189 c0bf b060 5065 5c5e c0bf
000000c0: cc5c f842 30f3 c2bf f8d6 019d e038 b7bf
000000d0: 1df7 9a4f b9b5 f0bf 5992 8986 1ab9 c6bf
000000e0: 5fac d39b 5733 bebf 9cb1 484d 5e00 c4bf
000000f0: f177 2165 c4fa febf a8ee 26e3 b5fa c1bf
00000100: 7d8f a087 b525 00c0 73bb 2111 d480 c4bf
00000110: 7122 84a0 e6ac b7bf de3d af63 810f cdbf
00000120: 89bb c35f 5a43 bcbf c85b 46fa 2aa0 b8bf
00000130: 023d 1568 d41f b5bf 4003 a871 a0c3 b8bf
00000140: 2ece d474 3899 c3bf 7308 1826 b0f4 cdbf
00000150: 6c7f ceda 8a5d c2bf 4f89 e967 1186 b4bf
00000160: 09ed ef20 ee7c bfbf c956 63a5 9bad c7bf
00000170: 19ac ba76 9f65 cabf 68d9 7d7f 10bb c3bf
00000180: f0d1 1f3a 53e7 c6bf a5e4 69cb cdfc f33f
00000190: 186d cbcc 919e b8bf 086b a5f4 f8c9 c1bf
000001a0: 3e84 ee39 c32c b8bf 7b61 8436 fe28 b5bf
000001b0: 757d 9408 289f cabf d475 6010 80c2 b9bf
000001c0: b5ba 621f 8f54 c1bf ca15 fed3 a535 b1bf
000001d0: cd1a 01db 3c3d b3bf 03b7 a40c 80fa babf
000001e0: 599b 2302 95c0 c2bf 76b6 7dd6 5008 c0bf
000001f0: d3d3 4858 520c a5bf 00d2 7c11 938d c2bf
00000200: cb1a 33d8 862d cbbf fdd1 d4b2 e920 c7bf
00000210: 095a 6841 9ea9 c3bf 9832 46fe 29cc f43f
00000220: c52b 200d 94e2 b2bf 51f7 fc5d 601a cabf
00000230: 48bd a268 5257 f53f 017f d8e3 3c61 b6bf
00000240: 9c40 c620 695d bdbf 8262 338e bc13 b1bf
00000250: 702c 639d 647c c4bf 4de1 105d 227d f03f
00000260: 100d c248 85c1 b5bf ede4 409d ebf1 ec3f
00000270: d8c5 f230 a334 b0bf b234 27b5 364a babf
00000280: c714 e320 0c06 b6bf 372b 25bc 98c5 c3bf
00000290: 5acf 47f6 d8ad c4bf 1c50 9694 c46f c4bf
000002a0: 2e6e 5cca 7ea6 c0bf 9c3c dff4 a948 fcbf
000002b0: e65d 2554 7232 d8bf 7a8c a2af 58f3 b9bf
000002c0: f902 38d3 e062 c0bf c684 e370 be6c cabf
000002d0: f531 3795 d5c4 bcbf a0a9 c7fb 1ef0 c3bf
000002e0: e22a 2e01 9b06 c1bf e822 cdf2 0c21 cabf
000002f0: f3fa 5513 99cc c8bf f060 6d33 291b c0bf
00000300: 6b8c b109 275e bebf 6ae1 97b9 d793 bcbf
00000310: 4580 e2c7 e0fa b8bf 4954 b437 59ad 02c0
00000320: c53d 658b d47f bfbf bae4 6085 bbaf c3bf
00000330: 2c94 f528 f612 c5bf ebed 8e73 e069 0140
00000340: 888c b3a2 3636 c2bf 12df 7b7b db3d d43f
00000350: 1689 e77b 2c0e b93f 3803 e62d d77f 0640
00000360: d98e 9f1f bce3 c53f bc8f 8e79 5ab9 b0bf
00000370: 2a18 0b8f bc4e cabf 090b 5be0 84bf b3bf
00000380: bd79 4089 58be c7bf 6f4f b289 6e49 b4bf
00000390: 0f3f 1f7e ccee b9bf 355a b002 0642 b9bf
000003a0: dc47 8341 3aab c8bf c528 d55d aa54 bebf
000003b0: 5aa6 49d0 4ab2 ee3f c67f 6353 8c15 c1bf
000003c0: cffb bd19 7d7e b7bf 8cf7 4be3 2cdb c8bf
000003d0: 0355 d059 710c c2bf e874 3fb9 641e ee3f
000003e0: 7e30 504a 78d0 cebf a0ae 2ae9 82a2 48bf
000003f0: 4932 bc66 4822 c7bf bd99 eef2 99d2 bebf
00000400: faef aff2 614f bebf 287b 85ae 77d2 c2bf
00000410: b0e2 e734 bd3c d9bf 142a 10a1 cbe3 1240
00000420: 2aff 1a01 162e a9bf 3471 846a 72dc c6bf
00000430: ca2f 3279 cf5a c5bf 890f 627d 50ad b9bf
00000440: 72fe 625e b4ea c1bf cb9c 47df 0e7f d0bf
00000450: dd80 74b9 e15c b6bf 78d5 cc34 7ef7 c4bf
00000460: 62a1 e104 be16 ffbf fff7 7190 869b c6bf
00000470: a491 5edf 0412 0440 9fd6 9923 0c02 cebf
00000480: 3bec 9889 6ff6 c8bf 1446 39b3 c480 c5bf
00000490: 4b93 2545 6e83 babf 6db2 a9a1 de32 09c0
000004a0: 21bc a71d f250 b7bf 4ef2 9a9f a7f1 b7bf
000004b0: 871a 14b2 cc7a c8bf 06f2 ddaa cc9e c0bf
000004c0: bf55 7617 d178 c1bf 8a16 cb78 786e 0140
000004d0: f04d dd92 3022 c3bf aafb 6fb0 ba0c f23f
000004e0: 9496 e5fb bb4d d83f a3fb 024b 6f8f b7bf
000004f0: 6c57 ecd3 b422 b9bf adb1 c2f3 f098 c6bf
00000500: 460b ab69 bd38 c7bf 3ce7 e2e9 6f2a c4bf
00000510: d35d 3726 a9f8 c3bf c4a7 0cfa e430 f63f
00000520: fb2f 9cad cfa2 d1bf 4ac0 f406 3936 b3bf
00000530: a02e 4b3c aa9d cabf 263e 279c a764 bfbf
00000540: 568f 8579 380c 10c0 51f4 5ecf 283d 0840
00000550: eba5 96fc 6e85 d73f c8e0 a2d8 b1e2 ed3f
00000560: f63b d3e0 ebd4 fd3f 3a38 938e 9d72 0740
00000570: ef1e 522d 0419 d4bf 6192 51dc c05d bfbf
00000580: 46d3 5f5c fc6e cabf 146c bbc2 daf5 e9bf
00000590: 723a d869 d6d6 bfbf c9cd e9a2 a76a b9bf
000005a0: 3abd e954 0566 b7bf 3b24 7ad9 aff7 fc3f
000005b0: 3c90 db2a 90af c3bf 5a0b bb5f 3a05 fc3f
000005c0: 84bb 02d8 9692 d23f b804 b5cf 900a b8bf
000005d0: aefc 0371 e832 f53f 440c c4cb 473a b6bf
000005e0: a948 655b 6849 c1bf 696e 6512 ac40 afbf
000005f0: 0977 cccd 52ef c2bf c4d7 73f7 f8ce b9bf
00000600: d0a9 1023 7d40 bdbf a0d8 3d25 6856 c2bf
00000610: bec2 c06b 41ca b9bf 0298 402f 9b35 d0bf
00000620: 2ace 82b2 7ee8 b6bf b704 b29f 8d07 bebf
00000630: 4f3b edc1 583e c1bf a100 e9be 5442 c1bf
00000640: b29f 47d0 b6fb c8bf 98a6 98f6 2229 c1bf
00000650: c0b6 ff30 0a37 dd3f 668f e5c0 7b8c c2bf
00000660: 4944 9b9f 3d0c c3bf 592a bfea d214 b1bf
00000670: 87d6 07ea af60 c1bf 87fa 352d af7a c5bf
00000680: 7415 7511 fa9c c3bf 1d22 09b4 e957 e8bf
00000690: 9244 80fd 24f5 c8bf 1ce0 a575 5478 e3bf
000006a0: b8e5 8dc2 5cc1 ff3f 0b91 aa04 e2a8 babf
000006b0: 79af 0922 6063 c7bf 6e64 0946 dd27 fb3f
000006c0: 73e3 7dd7 3d1f f0bf 30c8 4ed4 e3d6 c5bf
000006d0: 195d 1935 880b 0640 4cf9 6808 99c5 da3f
000006e0: a2c7 b05e 91a9 db3f 29c1 f556 49a0 e3bf
000006f0: ebf5 d102 66c5 b9bf d517 2bbf 9eb1 f53f
00000700: 25fa ae40 6cf8 b9bf 2a66 6b76 cd96 c3bf
00000710: 0bcc 3a19 321d b9bf 0306 dce7 abb9 c2bf
00000720: e40b a258 6440 c2bf dd0c e41d 59d6 fb3f
00000730: 7f0a 6adf ff11 ccbf 7191 9fb9 3f0c c0bf
00000740: 980b 20de 8969 0040 7596 c965 9b35 b4bf
00000750: e43d 9db8 0b06 c8bf 0a5f d97f 64e8 e43f
00000760: 3eb7 3550 0fdd c3bf a8cf 5d4d e0d7 b5bf
00000770: df43 23f1 346b babf 5d88 2422 aa5a c7bf
00000780: b3a8 406c e352 bcbf 2dd0 27e0 ee40 c3bf
00000790: e2b8 37fe 998f b1bf da59 1d72 6a82 b2bf
000007a0: 39c9 dfcf 4017 bbbf b2bb 3e3c b889 b4bf
000007b0: f27a 48e3 a1ef d1bf 6bba f430 f61c e2bf
000007c0: 4ad4 00b0 d135 b9bf 1de8 2736 ed98 bebf
000007d0: 634c 17c0 ffac f1bf c287 b04f 3440 bbbf
000007e0: 8f83 cb77 42fa c3bf 8390 7e95 c6d6 c6bf
000007f0: 5975 fc3b e210 c0bf a0a7 cb1d 0a3b ce3f
