lab4/trained_rbm/rbm.hid--pen.bias_h.npy (npy, 4128 bytes, 1 tensors)

array f8 [500]
000000 e0 ef 83 4a f1 dd db bf 81 29 dc 44 10 36 cb bf
       -0.43542129780666805 -0.21258738863282292
000010 5c d8 e6 92 31 e0 da 3f d0 68 47 b5 f4 49 d6 bf
       0.41993369432328165 -0.34826390936872276
000020 7a 68 3b 9f 6d 36 c2 bf 51 8f a1 5a e9 37 c3 bf
       -0.14228601717951844 -0.1501437847647318
000030 66 31 c3 2c 5c fc b7 3f 52 ce 14 8c 04 b8 ad 3f
       0.09369445889314462 0.05804456911064605
000040 17 a0 dd 1f 05 f9 e0 3f c8 7e a9 0b a5 f3 73 bf
       0.5303979513528273 -0.004871029576491721
000050 4c 27 d8 99 05 1e c8 bf 0e 1d 42 ac 7f fc d5 3f
       -0.18841619502955564 0.3435362989625482
000060 ec eb a4 40 82 bd d6 bf 59 a3 28 fb 2b 5a ce bf
       -0.35531669915115915 -0.23712682498560403
000070 76 6f 25 4c 49 73 e6 3f de ef 11 31 ba d7 c9 bf
       0.7015730368834585 -0.2018959750747617
000080 23 b9 0d ae 79 9b bd 3f 23 59 6b 20 c7 74 e3 3f
       0.11565361499171849 0.6080051072301881
000090 35 23 e8 6e 91 fa d2 3f 8e 3d f0 b1 9b a4 c2 bf
       0.29654346304646434 -0.14564844311142305
0000a0 2a 65 d0 e3 89 b5 d3 3f 07 94 4d 56 21 8b b6 bf
       0.30795523879494857 -0.08806045872695743
0000b0 61 f2 c3 fc 1e 30 d5 bf 52 1b 0b d1 e5 d5 dd bf
       -0.33106207546351213 -0.46618028082268836
0000c0 23 b4 2e 01 f7 6f d2 bf 67 1c 34 b0 51 39 e5 3f
       -0.2880837928340176 0.6632469598270178
0000d0 83 4a 0f 1a f3 e5 d6 bf 01 a4 ee 69 88 e2 ca bf
       -0.3577850107659872 -0.21003823444814887
0000e0 77 c5 a4 0e 12 c6 f4 bf d0 be 60 35 6a c3 c4 bf
       -1.2983570644394982 -0.1622135887750944
0000f0 80 2b db 69 83 8b c2 3f fc b9 67 a7 30 d0 d4 3f
       0.14488260906940909 0.32520691250002165
000100 56 31 d0 3d 21 fb d3 bf 48 41 a9 1b 9d f3 b1 3f
       -0.3122027495999381 0.07012350011178115
000110 66 f2 dd ae 65 12 b8 3f 55 f2 57 b2 85 b4 95 3f
       0.09403071898663881 0.021196450243211668
000120 1b a9 d2 8f 90 05 c8 bf 96 0c 7b 18 62 9c d2 3f
       -0.18766982100107374 0.290794872195144
000130 b8 25 c4 cb cd 5d d3 3f 31 33 c9 df 50 7b cd 3f
       0.30260033511202833 0.23032580306098674
000140 9e 8f 8c 77 f1 94 e0 3f 56 8c f5 cf 02 4a cc bf
       0.5181815466826156 -0.22100863603836512
000150 38 86 74 c0 63 0c d6 3f d2 0c de bc fa 3d 9c bf
       0.3445062045521783 -0.02758018281703018
000160 62 8b e1 28 bf 7b be 3f 00 ec 14 76 99 1b 9d 3f
       0.11907572506019684 0.028425596077095605
000170 85 93 7b 81 4a 37 d2 bf 5e 35 1f 4e 22 79 f4 bf
       -0.2846246971587834 -1.279573731578544
000180 4f be cf 4b 9a 8e c7 bf 23 5b c8 f0 83 0a db 3f
       -0.1840393896268204 0.4225168086426711
000190 98 71 49 63 5b 2b a2 3f 1b 1f 59 d5 c7 db c4 3f
       0.03548703753469623 0.16295717160596088
0001a0 9b b4 a3 ab 52 32 c1 bf 5f c8 50 86 be b5 8f 3f
       -0.13434823399385185 0.015483368371949689
0001b0 53 b1 68 68 37 63 ca bf cc c1 46 02 26 8a d6 3f
       -0.20615284536450904 0.35218191358856354
0001c0 1a 78 a6 d3 53 74 e0 bf 01 b5 9e 34 9f b2 d0 3f
       -0.5142001279634798 0.2609022153727239
0001d0 2b 64 19 47 7a 21 b1 bf da 53 05 a0 cc 49 da 3f
       -0.06691707835979403 0.41075435282738015
0001e0 26 31 45 9e 90 ee a8 bf 64 89 8d b6 85 14 d6 3f
       -0.04869510585794705 0.34500258281163654
0001f0 5f f3 22 3a 01 6d c5 3f c4 dc 9b a4 57 cc d2 3f
       0.1673890622968441 0.29372206759530806
000200 16 a0 56 b6 93 49 b6 3f 31 db c8 67 8b 10 ac 3f
       0.08706019593830691 0.05481372491742887
000210 51 95 91 34 02 68 cd bf fd 05 c6 9a 4e 86 e0 3f
       -0.22973659102278046 0.5163949034615026
000220 32 f4 ec fc b2 a9 de bf 7c 13 cc c6 99 89 da 3f
       -0.4791076154686521 0.4146484795931469
000230 d4 7d 0f 14 72 88 d0 bf d1 f4 1c 60 45 2a b1 bf
       -0.2583279796508269 -0.06705125423919191
000240 76 e5 83 53 d9 7b e3 3f c4 8c 6b 40 ce 78 7b 3f
       0.6088682776600496 0.00670700614020631
000250 84 0a cc 15 bb bd d1 bf 93 96 07 63 8f 4e c8 3f
       -0.27720524910561317 0.18989746413642603
000260 96 8c 04 30 2d 27 90 bf 70 8a 32 95 27 18 b5 bf
       -0.015774446540615182 -0.08239982025637871
000270 cb 39 d0 a7 08 d5 e4 bf 79 c8 9c e6 15 73 be bf
       -0.6510051038365473 -0.11894356613336922
000280 ec fc d5 a0 a8 50 cc bf 8c 22 9c 83 55 07 e5 3f
       -0.22121150830569236 0.6571452684884931
000290 78 b9 7a bc a5 81 e3 bf 08 23 4d f1 c2 91 ef 3f
       -0.6095760995138297 0.9865431511799168
0002a0 cd cb 58 9f fb 70 d2 bf 28 45 ba 5c 93 79 b1 bf
       -0.2881459289666822 -0.0682613469491754
0002b0 12 e3 c5 19 b9 ba d8 bf 82 e2 61 86 e8 4d c1 bf
       -0.38639667050260684 -0.1351900726474647
0002c0 30 05 0f 78 2f 9e 52 bf 58 32 ee ca 42 37 cf bf
       -0.0011363471569299614 -0.24387392910684258
0002d0 ac a8 54 9f fd 0f d8 bf db 75 e1 30 e5 0d d9 3f
       -0.37597599563253925 0.3914731004095679
0002e0 ad 5c fa 65 d0 13 e6 3f 11 50 62 08 1a 5b cc bf
       0.6899187080151897 -0.2215302029550235
0002f0 b4 e8 95 1d b8 a9 a3 bf 75 fe 4c 15 b1 b3 d0 bf
       -0.03840422974731564 -0.2609675128951275
000300 e1 cd 34 4a 18 08 c1 bf c9 f9 40 6b b3 ea eb bf
       -0.13305953620293479 -0.8724000067521099
000310 9e c7 20 5d 09 b4 c2 3f 7d 2f 18 60 69 fa be bf
       0.1461192803122317 -0.12100847812706479
000320 b4 5f 10 79 68 5a c2 bf ee 5d 50 07 29 a2 e3 bf
       -0.1433840361721629 -0.6135449545717486
000330 30 61 82 6f f1 00 bc bf 1d 8b e1 02 88 40 9c 3f
       -0.1093893906821719 0.02758991735062032
000340 bf a2 4d 80 3a 22 c2 bf de 19 ad 1f db 48 d1 bf
       -0.14166957154090729 -0.270071774419561
000350 a0 3d cb 04 04 1b b4 3f 31 2f c5 53 1c 7e e8 3f
       0.07853722683943554 0.765394366849682
000360 a2 86 0a c3 10 49 e6 3f 1f 10 57 38 53 c5 d5 bf
       0.6964191254994214 -0.34016876699411286
000370 7c 3f e5 f8 5d b2 d5 3f 18 84 52 d5 9a 23 ce bf
       0.33901166254235426 -0.23546157280091573
000380 f0 9d 74 55 d9 71 cd 3f 99 8f 65 f5 12 3b c9 bf
       0.23003689453729192 -0.19711529714834056
000390 6c 21 05 db 62 32 d7 3f 42 71 8c d9 0e ee cb 3f
       0.36245032681156064 0.21820245382776632
0003a0 e2 45 93 86 6e 7b d5 3f 73 ba da 66 b5 45 e0 bf
       0.33565867559545215 -0.508509350669398
0003b0 98 48 54 22 56 03 d6 3f 70 91 aa 52 7a d9 cd bf
       0.3439536414381421 -0.23319939648093735
0003c0 59 89 76 94 5b f6 d8 3f f3 df 6f f6 26 59 d2 bf
       0.3900364827951726 -0.28669141832460737
0003d0 a5 c3 54 55 f7 f6 cb 3f d5 99 51 68 e8 26 c5 3f
       0.2184743086486637 0.16524987310113085
0003e0 89 0d 60 e3 0d c5 d3 3f 22 f4 87 6c 3b 09 d6 bf
       0.30890223698244107 -0.3443134841798515
0003f0 71 69 0e aa 41 ef c8 bf 69 99 82 cc 8b 35 ad bf
       -0.1948015289643297 -0.05704914924108346
000400 68 fb 62 b0 2f c9 cd bf 43 84 2c 1e 94 9e c9 bf
       -0.23270221817616776 -0.20015193436941744
000410 e6 a9 e1 d5 1c 32 c0 3f 4e 17 79 30 ac da d6 3f
       0.12652931636269144 0.35709671720211567
000420 e7 9b 12 da 67 5c c8 bf f5 44 b7 55 c6 c0 df 3f
       -0.19031999729233393 0.496141036707811
000430 90 ec 3e 12 58 4f d3 3f 18 9a de 3d 0f 08 65 3f
       0.3017177751714337 0.0025673196496030053
000440 2c 45 ab f0 d2 86 fa bf 75 cf ac 83 bc 8b d2 bf
       -1.6579160119184264 -0.28977883204355886
000450 79 72 30 2a c7 fc c9 bf 7e 2f bf 07 bb 1c cf bf
       -0.20302667198201954 -0.24306428793203944
000460 18 57 db d1 b3 de d5 bf 66 ed 85 c9 4a 21 bd bf
       -0.3417176770575323 -0.11378924770354146
000470 35 9a 4b d9 ff f0 c5 bf 7d 41 f5 d0 7d 68 e0 3f
       -0.1714172183048547 0.5127553063594373
000480 c0 f4 d7 f1 67 ad d6 3f 29 18 da 38 d5 3c d2 3f
       0.3543338643792815 0.2849629454798355
000490 79 25 3d 54 af e4 d0 bf 32 c2 44 71 a2 9a c7 3f
       -0.26395781732988827 0.1844065716809538
0004a0 d6 e3 3c d5 08 0a cc 3f f3 df 88 9c 87 ae b4 bf
       0.21905622875217884 -0.080788112369987
0004b0 2a 06 de 1f aa bc d2 bf ef 0e ef 5b dc b3 ec bf
       -0.29276517021216597 -0.8969556613523916
0004c0 d9 a0 97 29 9f ce c1 bf 97 22 57 e3 8c e5 d2 bf
       -0.13911809473871165 -0.29526064110954436
0004d0 0e 36 ac 7b 14 01 e3 3f 18 1b 07 00 66 ea d1 3f
       0.5938818374140185 0.27993154528341924
0004e0 54 69 d9 7b f8 92 9f 3f a0 0c fd 42 0d f0 db bf
       0.030834085997733254 -0.4365265993294063
0004f0 d1 78 25 32 61 7b ca 3f ec f2 61 0d 20 06 d2 bf
       0.20689024876168685 -0.2816238527955608
000500 d8 09 53 53 f6 b9 cb 3f 6c a9 aa 9d b6 14 ca bf
       0.2166126162392874 -0.20375712107245236
000510 5e 69 4f d6 9c 26 9a 3f 20 a9 d0 72 b6 52 5b bf
       0.02553792055173553 -0.0016676694606397383
000520 24 47 b2 08 aa 9a d9 3f 5a f4 fb 0f ec eb cc 3f
       0.40006495332009906 0.22594977169493086
000530 bd 0f cb 6c a1 53 cf 3f b6 e9 f7 97 e7 b2 df bf
       0.24473970234077838 -0.4952944740358832
000540 0d 81 29 be e8 d1 b8 3f 25 f3 9d 1e df 21 be bf
       0.09695295946722045 -0.11770433900342121
000550 1a 37 62 59 28 2c d3 3f 1b 47 43 00 8c a4 e6 bf
       0.29957016686317817 -0.7075862889416585
000560 64 2d b9 99 40 1f d5 bf e6 bc 4d 8a 71 2d e8 bf
       -0.33003249179883754 -0.7555473042720251
000570 8d 5b 29 6a 49 3b c8 bf e4 f2 4a af f7 05 ba 3f
       -0.18930928882283773 0.10165355710610019
000580 a8 a7 a8 00 b0 00 d6 3f 7c a6 50 e7 45 73 e2 3f
       0.34379196228348485 0.5765714185592539
000590 80 cd 40 21 0e 21 d6 3f 2e 99 94 aa b2 b0 a9 bf
       0.34576752898575336 -0.05017622310906443
0005a0 72 78 18 88 97 ab d0 bf bb 37 0f 41 6b 21 d2 bf
       -0.2604731396730876 -0.2832897315355429
0005b0 67 dc da c8 e2 3c c5 3f 09 17 a4 3c 87 8f c8 bf
       0.16592058951730168 -0.19188013516411953
0005c0 44 8b 83 3c 64 9a cf bf 68 d8 33 c8 84 7b d5 bf
       -0.24689915613915947 -0.33566398192431857
0005d0 2e 5b 53 b4 08 e3 cc bf 3f b5 1e d2 b5 84 e3 3f
       -0.2256785278793471 0.6099499801545462
0005e0 c6 87 bf 0b 93 b7 d5 bf 28 ba 71 95 2f cf cf bf
       -0.33932949206620966 -0.24851031109888422
0005f0 ec b4 5c 97 e1 c6 e3 3f 3a 3d 8f 90 16 97 a2 3f
       0.6180274921695434 0.036308961054255254
000600 bc 8e ec 8d 8b db e4 3f b0 a6 fa 06 30 6c e3 3f
       0.651799943156639 0.6069564949331916
000610 64 33 20 05 57 c6 de 3f 4c da cc b1 85 ae bb bf
       0.48085570812764034 -0.10813174811196652
000620 fb 0d e9 a1 6b 51 bd bf 64 41 56 03 5f 0c e3 bf
       -0.11452362730874903 -0.5952601494955556
000630 78 95 c0 a9 a4 3d c1 bf 73 80 f1 c4 9a e1 d2 bf
       -0.1346937016361769 -0.29501981003523453
000640 58 4e b3 2a ce 2b d9 3f 1f 99 49 e5 ae d8 c0 bf
       0.3932986657139046 -0.13161264606169085
000650 16 50 3c 75 50 ae d7 3f d8 85 29 7d 0d 04 e4 3f
       0.3700142998579862 0.6254947132658186
000660 56 89 b4 9b de 9c b1 3f 36 79 f3 65 8c c5 d8 3f
       0.06879988957783686 0.3870573993316556
000670 e3 dd a6 0c de f8 c4 3f ea 73 c7 5b 41 29 d8 bf
       0.16384482972874456 -0.3775180240898509
000680 28 24 36 cd d8 1e 9f 3f f1 69 3d 8e f9 dc cb bf
       0.0303911090136674 -0.21768111653621205
000690 32 cc cb 4a 56 80 da 3f e1 49 77 06 b0 ba ba 3f
       0.41408307365708474 0.10441112668858167
0006a0 9f e6 7a cd 1b 08 c1 bf 7a 5f e6 77 12 67 bc 3f
       -0.13305995495993714 0.11094775607341303
0006b0 16 44 f7 ba 4b cf 9c 3f d5 21 2e 6e 2a bd be 3f
       0.028134520803920614 0.12007394018122082
0006c0 2c 7e b7 88 13 9a d9 3f b6 29 45 0b b8 0f c9 bf
       0.4000290713429162 -0.19579220342923315
0006d0 9c 22 73 a0 71 c8 d5 bf ac c4 4d d7 e4 01 f0 3f
       -0.3403591219799098 1.0004623804382318
0006e0 76 24 78 e8 c0 42 c2 3f 36 2e 98 96 85 dc ed bf
       0.1426621565918002 -0.9331691685960724
0006f0 9a e0 47 54 00 78 d4 bf 28 62 dc af 10 e9 d6 bf
       -0.31982429724258454 -0.3579751698867164
000700 5f 8a 6d 0e 33 9a d8 3f 30 f9 df 68 f7 c8 e0 3f
       0.3844115868470563 0.5245320366227926
000710 c9 a4 c0 75 5b 10 e6 3f 86 d0 ca a1 6d ee d0 bf
       0.6894967365125463 -0.2645525054933916
000720 85 c5 aa 51 4e 17 d1 3f cc 7c 2e 4a 11 3f d1 bf
       0.2670474813013118 -0.26947433704658574
000730 be d0 80 37 b9 c4 d2 3f 5e 67 fe 4e aa 20 e0 3f
       0.2932570497535031 0.5039874594542473
000740 7f c2 3a 40 ae 8c d0 bf 2b 84 9b 6d e9 1b c5 bf
       -0.2585864665261752 -0.16491430141380312
000750 5d 76 95 9c 0f 02 cc 3f 1a 7c 1e d9 c9 4e ce 3f
       0.21881289621062452 0.23677943326490053
000760 01 8d 6c 8e a6 4c c6 bf eb af 06 b5 a8 1c d0 3f
       -0.17421419100092098 0.2517492072900029
000770 21 01 f3 9d df 46 d7 bf e2 b1 76 41 a6 77 d0 bf
       -0.36370077538232876 -0.2573028220456576
000780 26 5e 0a 47 5c c0 d5 bf 6a 3f 5c 19 58 73 e9 bf
       -0.33986575067089786 -0.795330094844741
000790 a2 84 5a 2e 70 a1 c6 3f cb f7 73 08 72 ff b6 bf
       0.17680170310362536 -0.08983528810855927
0007a0 d1 cf 93 8e 91 b8 db 3f 6d d6 79 81 21 d1 e0 3f
       0.43314017222951146 0.5255286721064302
0007b0 5c 55 e5 7d 14 41 d0 3f e5 26 6f 6c bc 66 c8 3f
       0.25397217077746403 0.19063525480878876
0007c0 9c be db 16 c9 28 e7 3f 3e e8 fa fa a9 5d d1 3f
       0.7237286993458443 0.2713417960145569
0007d0 90 fa 9e d6 57 e0 52 bf 24 ca 22 44 2c 95 d3 3f
       -0.0011521203800694303 0.3059797921552294
0007e0 2d 96 73 ee 5d 8e d3 bf 6f 1b 42 06 cf 31 bf 3f
       -0.3055643871906309 0.12185377028263898
0007f0 6a a8 58 c5 b1 b9 c0 bf af 61 82 e2 67 d5 e3 3f
       -0.1306669438939168 0.6198005126962495
