lab4/trained_rbm/rbm.hid--pen.bias_v.npy (npy, 4128 bytes, 1 tensors)

array f8 [500]
00000000: 86d2 cc05 eec2 d5bf ae7c 13da 4596 b7bf
00000010: 08bf 49ef 84d4 66bf 324f 8ce2 1bc6 e23f
00000020: db81 41de 2053 c9bf 8032 6b58 dae5 243f
00000030: 4ece 9dd7 27bf d93f d247 6498 bce8 e33f
00000040: 5446 9f9e 6920 98bf ae7e 0827 7425 db3f
00000050: 74bc a87f 816e c43f f25e 18bf 8ffc 72bf
00000060: 6685 2871 20a3 793f 0627 ed8a fc41 b2bf
00000070: c123 f8bd 10fc ab3f 618a 5702 434c cc3f
00000080: 58c7 0c83 54f8 d03f 5e59 0fe7 0c81 e73f
00000090: 4075 a510 f243 b53f 273b 2af1 f695 d1bf
000000a0: af0d ae02 d281 b1bf 45ac 50a6 6093 873f
000000b0: 4dd8 d6f7 edc7 e03f d454 1f08 25c7 d4bf
000000c0: b0ee 2e59 205c df3f 9c39 a115 9d78 c1bf
000000d0: b8f9 9379 7ad3 d83f aa27 782b c638 b93f
000000e0: 36ab 7ab1 810b cdbf 7ec1 dbc3 4719 c83f
000000f0: d2e8 70e1 7097 d83f 271e cf12 06d7 833f
00000100: 1100 4e23 ab28 be3f 925b e5fe 3b4c c6bf
00000110: b49a 1a18 eac7 e43f b021 1c3d 3847 da3f
00000120: 045d 957f 3c27 d1bf 8e1d 1b43 e00e c0bf
00000130: 6c51 2c63 428e cfbf af9d d9c0 7948 dd3f
00000140: 8604 3dc4 2803 c0bf 1dbd 8017 c52f e1bf
00000150: e9c8 6a30 8d65 b33f e683 80f8 461d bdbf
00000160: 49fe 82d3 3412 e53f 380f 7a65 400c d3bf
00000170: dd25 90c0 4acb e33f 26fc 8c93 5639 d63f
00000180: 633a f1b2 d0b2 c6bf 8ef4 4970 8b8b d2bf
00000190: 5e9b 67f8 8c20 dc3f 4474 a6d7 10e2 a5bf
000001a0: 41d9 bc75 d4f4 b63f 3ae5 16b2 7989 a0bf
000001b0: 26c5 a476 230f ccbf 8a9d 4c67 bf4f dc3f
000001c0: 2044 3732 8740 d7bf eeae 2c2d 21eb d3bf
000001d0: 0511 5439 237b 89bf 0644 c23f 9479 d23f
000001e0: 419d dca6 5bc3 c53f 1066 9ff1 9751 d0bf
000001f0: bc8d 939d a5fe d23f f78f 1da7 ff66 bc3f
00000200: ed82 62bf 32b7 c0bf cc89 b3fe d88e cdbf
00000210: 2a25 7db9 d844 9d3f 7540 872a 653a b2bf
00000220: f5cd cd51 b9b5 b6bf 6665 7afb 325f b33f
00000230: 7476 9cb0 3166 da3f 861b f5c6 07a2 d73f
00000240: f978 8d39 b656 e03f 10b1 1d88 ed32 d23f
00000250: 767e 1eda 218b b93f 2ef9 76f4 5e66 d23f
00000260: 4a4b 4ffa bbab 99bf 5f63 d9b1 6f29 da3f
00000270: f4eb fb06 1762 de3f 4a1e 7235 8a84 c8bf
00000280: 81fb 8b5e e012 8b3f 9aee 62e4 0a94 c5bf
00000290: af27 3430 2951 a53f baf0 ffea 5e0b da3f
000002a0: 98d8 2a07 0908 d0bf 48fe bbf1 72a0 d63f
000002b0: c56d af0d 6b08 b43f 64c9 b7ba 4065 d43f
000002c0: cd9b 56c5 8f1a abbf e811 1046 f082 dc3f
000002d0: efb1 9622 23aa bcbf ac40 2565 ccd9 a93f
000002e0: 7cf8 3ff4 a992 b93f 1ab6 8626 0e95 b03f
000002f0: 874e 12fe 9e28 bbbf 29c5 9897 f85d c83f
00000300: 00b6 3b6d 13eb dc3f 2ad8 3d49 aa84 c9bf
00000310: 4866 9183 d34c a3bf fa7c b239 c790 e23f
00000320: 0221 613b 7d0d d23f e22e a35b 4576 d23f
00000330: 74a6 385a d6ca cf3f 9ff0 9460 f03a b4bf
00000340: af86 cb34 8368 c83f 468e f457 eb99 aa3f
00000350: 2235 5d60 6eec e63f 8225 aa77 ee6c b5bf
00000360: c44b c4d8 ae5f e83f 4064 1e83 bb2b d43f
00000370: 55e4 3dc8 567c 88bf 012c 6740 7154 c4bf
00000380: 7752 f477 41bc d1bf 49e2 d978 3772 afbf
00000390: a37a 5c96 27e9 a2bf bde6 5df0 9c6d c63f
000003a0: 8f52 7319 6cc9 eb3f cd6a 5585 e4ff cc3f
000003b0: cee6 f6b2 5aea df3f 8c03 f7a3 53e2 ca3f
000003c0: 10b3 7e09 9481 c3bf c44a 9fa9 17e1 92bf
000003d0: e8af 97bb 0969 e2bf 7783 401d 0b57 b43f
000003e0: 7934 dce8 27ff c13f 3fda e3fa 8527 ce3f
000003f0: c49e a342 92c6 e23f ec43 2689 2965 d33f
00000400: f8fd dbba fad3 e13f 0a46 3d18 ffa3 bb3f
00000410: e186 e571 8a1f b2bf 90ba e751 4b29 d73f
00000420: 464b ca0a 6ea9 a6bf 4a1d 1596 6b6e d23f
00000430: 62d9 3442 d713 dc3f 3e3b 9719 b9f0 d7bf
00000440: c0e0 c904 3b38 ccbf d6e2 2e8a cedd ccbf
00000450: 5fc4 8cdb 3a50 c13f c12b 4967 3d21 c73f
00000460: f821 58a4 72d2 cfbf 32f3 b3d8 a810 c33f
00000470: a32b 4472 044c b23f c129 d120 41c3 8ebf
00000480: 66d3 025d 0a26 c2bf f9c6 7ed8 d6c3 a1bf
00000490: 09d6 b6ac f776 d0bf baa2 f07f b4ed d63f
000004a0: 17d2 ff56 a44b d3bf 46f0 6460 db38 d7bf
000004b0: de68 ea4d 590c b63f 8c9b 6303 1d22 e93f
000004c0: 3543 c1b9 682b b13f 0a67 0e0b eb22 d33f
000004d0: 81e1 2f3c 9ae1 e0bf 4d6c 9046 0154 c53f
000004e0: 6083 2efb 8589 d53f 26ea f09c 4ae1 dc3f
000004f0: fdee b219 fef0 a8bf 72db bb94 4031 a9bf
00000500: deb4 51c4 6663 ccbf 5494 6fbf 5aed a93f
00000510: 9f0d 9cc8 7ff3 e03f f0d4 6df4 fbf9 cbbf
00000520: af7e eba9 e47e c9bf 0ea1 a33d b963 c0bf
00000530: 8156 f8a1 b8e1 acbf 15bd 5fdc 3d3e de3f
00000540: 01cf 9d9b 0125 ae3f 0a24 72f8 b88e da3f
00000550: f2fa 1ad0 7dc1 d6bf 91bc 66bf 2ef9 b0bf
00000560: a6bb 2a46 8939 d93f c62d 234e 8cf8 bdbf
00000570: 7636 c0bb adc6 d03f cc97 9cd7 62cf b73f
00000580: f89f 71ab 12b5 d2bf 1ab4 e7eb fa13 d03f
00000590: a02b 965d 4644 d8bf 3302 d159 586f bb3f
000005a0: c094 ac76 2ff0 dc3f ac4c b7ad 470a b83f
000005b0: 65ef 26a8 1500 b23f f741 9b54 e919 c3bf
000005c0: 04d8 4d6a 8771 c73f da78 1d4f 83bc ea3f
000005d0: 61f1 394c 165e c33f dc4d 9da7 16ba e33f
000005e0: 3886 09cb ad4f c53f c2e4 87f3 dea1 943f
000005f0: f65f 2c46 27c5 ca3f adca c40b 9fdf dbbf
00000600: 01d5 3b49 5114 b2bf 4a9a 055f b223 da3f
00000610: 0b10 2e79 007d e03f f6bb 6440 8ac0 c73f
00000620: a20c 7d18 26c3 cf3f 5a0e 41e6 9221 ec3f
00000630: 94cf 564d 65f8 b03f e020 778a 814c b9bf
00000640: 708d a72b a731 db3f ce91 1d28 7aae d0bf
00000650: cfd8 f34b bd41 c3bf 6521 5c37 d799 d4bf
00000660: cc83 45b1 770d d33f 6b23 b3d9 3147 bf3f
00000670: 3d2e 83c2 d389 c5bf f07f b668 9a25 533f
00000680: d77c d859 4388 d03f c49b 65ab 59b8 b63f
00000690: 42de b9c3 14be c53f d2af 0de6 6d41 d33f
000006a0: 5fd5 b5b0 0d20 ccbf 30d6 0882 3c27 d2bf
000006b0: 6565 843b e81e 8c3f 5e93 2f38 c22a d03f
000006c0: 92f0 a00b f630 be3f 4151 3e62 5745 87bf
000006d0: 6eed 63b9 22b4 b33f cd67 9418 c0d7 c23f
000006e0: 4c94 6b1a 8e27 b63f 0953 0389 78fd b53f
000006f0: 3557 f1b1 a0bb c23f f97d 5ff1 1e8c c2bf
00000700: a28e 8e94 7419 d0bf 9dcb 1a07 82bf d2bf
00000710: b0aa c0a9 f19d 57bf 0511 ae80 83c5 cb3f
00000720: 5826 22f9 c26d 993f ed75 1a4a 9c1d cb3f
00000730: 345f b0ad c1c6 c9bf 8cde 3cd4 45d2 d1bf
00000740: b849 898a cd44 c03f 334d 2570 531c c9bf
00000750: 0a1a 6d01 58d7 7bbf d8db 1e42 10d2 b4bf
00000760: 0337 8f18 3781 c53f da80 fb8b 77bc e23f
00000770: 942e 0995 47d1 76bf b2c9 c870 7bcc bcbf
00000780: d9e8 e4a9 9600 c3bf 5b11 e3c5 3b3e e03f
00000790: 0200 0f30 3bc2 bd3f fac7 0268 aab5 c5bf
000007a0: 2c4f 4179 eae3 ef3f edd1 11ea 0cd8 c03f
000007b0: 006f 5ce9 da24 b1bf e45b e8f5 21cc b53f
000007c0: a2fc 4db8 0c9f a1bf a2c6 7ed2 1ec2 a4bf
000007d0: 35fb a992 db0e bdbf 97ae 97cf dacc d5bf
000007e0: 70de 82b5 8322 cf3f 5e89 4066 0c32 ccbf
000007f0: 13b9 0f17 c7fc cd3f e225 ff2d 2015 a4bf
-0.34002256933607844 -0.09213673185466817 -0.0027868839627486243 0.5866832184569601 -0.1978493771776034 0.00015943804120012797 0.40229221397678294 0.6221602417374419
-0.023561144167450657 0.42416099368891025 0.1596223710380148 -0.004635392675048188 0.0062590853945335475 -0.0713193740058636 0.05465748137436988 0.2210773240504578
0.2651568679603904 0.7345032227411072 0.08306801706699662 -0.2747781138540852 -0.06838715138842731 0.011511569095168048 0.5244054642305486 -0.3246548251457402
0.48999794682797937 -0.13649333530561314 0.3879076182637635 0.09852255402816348 -0.22691365400290814 0.18827149451636765 0.38424322143295087 0.009687468956953783
0.11780805217676994 -0.1742014879807497 0.6494036169795749 0.4105969044471989 -0.26801979502984374 -0.12545398022323834 -0.24652891008794187 0.45754855950368784
-0.12509641248655984 -0.537081285385202 0.07576830322321694 -0.11372798506683032 0.6584724551284548 -0.2976227751716922 0.6185659180638897 0.3472496453213715
-0.177332007764977 -0.28976713147842126 0.43948673494599244 -0.042740370106209485 0.08967330812888454 -0.032298853864129076 -0.21921199124475627 0.44236741149730874
-0.3633134832753644 -0.3112261716039332 -0.012441897570632418 0.2886705992360138 0.17002435348079284 -0.25498007389032384 0.296792415507493 0.11094663457839703
-0.13059076638184966 -0.23092186390483815 0.028582941361752358 -0.07120353973664513 -0.0887103867260562 0.07567137374498642 0.4124874329298571 0.3692645495361194
0.5105849384379147 0.2843583897836348 0.09977923941777952 0.2874982249594663 -0.025069176819509743 0.40877907150347953 0.47473693544424056 -0.19154479608208624
0.01321959770711856 -0.16858040000612534 0.04163483346390195 0.40694401692577353 -0.25049043369234303 0.35354302985067365 0.07825345119584089 0.31867998346492343
-0.05293702396311737 0.4454918560225267 -0.11197108835649038 0.05048979506193638 0.09989416325695005 0.06477440300542306 -0.10608857825200789 0.19036776926217527
0.4518478934031407 -0.1993611199974919 -0.03769551259092602 0.5801731230639284 0.2820733146550226 0.2884686846634691 0.24837760358177585 -0.07902433736757296
0.19068946912652993 0.05195556114838644 0.7163612253295109 -0.08369341298580049 0.7616800531126207 0.31516921810686327 -0.011955907808202474 -0.1588269772022102
-0.2771152182988667 -0.06141827917321458 -0.03693507872070725 0.17522012459430938 0.8683376786307963 0.22655922422821675 0.49867885090826014 0.21003194337938813
-0.15239191497439508 -0.018436784484786597 -0.5753220237652359 0.07945317711029341 0.14059924001813665 0.2355811572121684 0.586739664225171 0.3030494536733943
0.5571263932797015 0.10797113744526868 -0.07079377442053271 0.3618953990798355 -0.04426139718738979 0.28798951775066384 0.43871098962281085 -0.37406756877037484
-0.22046601995294246 -0.2255190062258154 0.13526092262466968 0.1807018999409973 -0.24860985779402234 0.1489459093208097 0.07147243299202315 -0.015020855726238904
-0.14178590337328528 -0.034697259833945844 -0.2572611986791747 0.35825836652888265 -0.3014918183901342 -0.3628452721930028 0.0861259284232889 0.785414225215264
0.06706862006218446 0.29900623397553316 -0.5275393653419514 0.16662612863078366 0.3365187600084507 0.4512506992938675 -0.04871362746913908 -0.04920388999555926
-0.22178349100014477 0.05063899599898805 0.5297240179210582 -0.2185664123059392 -0.19918497368688778 -0.12804332265592006 -0.056409616252648405 0.4725489284600866
0.05887608551611657 0.4149610925892949 -0.3555597812918868 -0.06630222485431349 0.3941367325996289 -0.1170737925305537 0.2621263822082719 0.09300821079213434
-0.292301814485199 0.2512194923172629 -0.3791671670848533 0.10716774170669723 0.4521597536971278 0.09390686026681533 0.07031379084849972 -0.14922825461555053
0.18315212908390788 0.835511831781129 0.15130881044377545 0.6164658807487586 0.1664941064255332 0.020148738492910885 0.20914164472992497 -0.4355237593582995
-0.07062252080853072 0.40842875747185714 0.5152590147777131 0.18556335586751488 0.24814296909071226 0.8790983674193271 0.06629021776353589 -0.09882363920690151
0.4249055792153831 -0.26064924161462677 -0.1504437085020016 -0.32188969045866705 0.2976969939391523 0.12218009533820655 -0.1682686519401261 0.001168633260796522
0.25831683897008645 0.08875046190733743 0.16986331517158432 0.3008684870353565 -0.2197281945079039 -0.2836447973125784 0.013730825725860549 0.2526097820939891
0.11793458732512566 -0.011362726865436048 0.07696740175372493 0.14720917892628763 0.08654106278443513 0.08589890809100721 0.14635094345674707 -0.14490114961425585
-0.25155367381578675 -0.2929387158757722 -0.0014414653769658052 0.21696513922882601 0.02483276982869706 0.21184114092186182 -0.2013780687418546 -0.27845903135628514
0.1270996977278409 -0.19617693878044803 -0.006797164699327238 -0.08133031477232977 0.16800583552542755 0.5855062231094295 -0.005570678346497399 -0.11249515059970497
-0.14845546050657424 0.507596861360564 0.11624498294168009 -0.1696064956536814 0.99657176668777 0.13159333638363027 -0.06696861455241887 0.08514606717686451
-0.03441657781422093 -0.040543521113602723 -0.11350796061195186 -0.34062834046083296 0.2432407985959233 -0.2202773570325673 0.23427666307493009 -0.039223676314190006
