lab4/trained_rbm/rbm.hid--pen.bias_v.npy (npy, 4128 bytes, 1 tensors)

array f8 [500]
00000000: 1879 2b61 309b c3bf b2e4 8b12 354d d9bf
00000010: 4651 6162 1533 e9bf be1b 3940 1dbb d6bf
00000020: 04c9 eeff 1ed6 e0bf c39c 65ef 0bc6 ebbf
00000030: ed96 9721 d5d9 b6bf b2d6 e412 2ad4 d4bf
00000040: bc52 b40f c06b c0bf 4e85 79b6 5b53 e03f
00000050: e04f dd41 7fd2 0440 88d2 ecf2 96a1 ebbf
00000060: ce55 aa6e 35c4 eabf ae4e 4279 e470 dcbf
00000070: ce1a 6131 0873 b7bf f4ed 5ad5 f57a 01c0
00000080: c156 66a5 4ee3 d2bf c5da 859c abaa fabf
00000090: a008 5099 5b5d e5bf ff91 5b98 6c6b fb3f
000000a0: 6846 e51e 002c ce3f 76d1 e98a 94af d8bf
000000b0: 50d7 d6d9 a787 d4bf 742b 6dca 44e6 e3bf
000000c0: 866b 6c8c b5df e1bf 82c2 f742 ba7c d7bf
000000d0: 7a84 ccc0 6e7d c4bf 2394 aa5c 7eba e6bf
000000e0: 510d 9e2c 9cb1 c9bf 6c30 f2f5 ed5a a7bf
000000f0: 594a 0fad 0352 c5bf 25dc da39 5948 fabf
00000100: be8a e6cf 3d9e d8bf 7c81 5adc 908d ccbf
00000110: 0e87 82c1 bcd1 d4bf dfee 9d40 4ab2 d5bf
00000120: aafc bb76 805b c5bf ca20 c4d3 ba97 e1bf
00000130: b3cc 7a76 51d4 ca3f 0f43 c712 d865 e8bf
00000140: 4e36 f2f4 3605 fe3f 75e9 e52b a282 f7bf
00000150: 7766 66f4 7695 d5bf 23db f6a1 88ec b6bf
00000160: 7020 2ad5 f267 edbf 5025 ad06 8fc7 db3f
00000170: 1e5c 3643 9629 efbf 5561 0e32 cc8c d8bf
00000180: 3669 1e2e 5dde d4bf 7784 4574 b803 ebbf
00000190: a2c4 0cbc c908 d9bf 256d 21ad 1401 e03f
000001a0: 1249 929f 1677 d53f d646 b9dd f5aa f6bf
000001b0: 1998 fe62 2e63 d6bf 7b07 3091 467e f23f
000001c0: ab3f 3ad0 63d9 d8bf 5642 9f30 7fa5 d5bf
000001d0: e4cf 32a4 ecb9 f0bf 95f5 85d8 5b49 c9bf
000001e0: ced3 fefd e4d9 debf 74bc ec5e 43c7 cd3f
000001f0: 1610 ccc0 e3a0 dbbf 37a2 4078 6891 f83f
00000200: 0247 1099 65e0 e7bf 646c 72a7 d4a4 efbf
00000210: f219 7dc9 49f6 cebf 475b c32f 94b5 c5bf
00000220: 3ee8 5c27 a93b d9bf 15d7 6df3 0cec d7bf
00000230: 465d 8ba7 bce6 cabf 9c2e 06ac be64 f13f
00000240: 3c41 b0ff 5349 dcbf a79a a830 89f8 d0bf
00000250: 86e7 e011 732c e3bf 70f7 d740 1ef7 dcbf
00000260: 255e a526 d39b 8c3f 252c 75b2 5071 d0bf
00000270: d228 a7b7 eaed e8bf e03f 6ad2 04eb c83f
00000280: e481 0fa4 92a1 dabf ba3e ef91 5559 b0bf
00000290: 46b3 5d3f d781 d5bf e306 deac adf2 e1bf
000002a0: e04f 86ce 1eca 493f 56ee 2a98 a896 ecbf
000002b0: 00ae 2fd6 38ab d8bf 6c6e a2f5 1a26 e0bf
000002c0: 4e8e 49d5 7bf9 e5bf 4a74 b26d 9ec4 d43f
000002d0: 2ad3 0e0e a3c9 dbbf c271 05c2 468a d5bf
000002e0: b6c0 fa12 4b69 d03f 5427 8058 5c37 e1bf
000002f0: bbe7 b664 39e7 b4bf e911 0789 97ab c23f
00000300: aa1f e2b4 a5df c9bf 0263 cd42 08a8 e7bf
00000310: bc28 d2fb 1847 dbbf fa85 a0c8 03ff d1bf
00000320: 9c34 0461 4522 cabf 5064 8000 50ae eebf
00000330: 00ba 540d 6062 dcbf 9a64 56b7 5e32 e9bf
00000340: 39cf 74c0 14ab d8bf 010e 8342 c155 e0bf
00000350: 332e 2041 20e6 c93f a2a0 fc40 70c7 d2bf
00000360: f5d1 e2e6 59ba ab3f f896 9704 85b2 0240
00000370: f1a9 6d51 8939 81bf 72c1 e9d9 f4f6 c43f
00000380: 0b38 3b7b 04f5 e6bf e0b9 28f5 5a26 f0bf
00000390: 8ab4 06c8 0c66 d9bf 23a6 f46a 9b00 c7bf
000003a0: 88c4 e8ec 3aa2 d9bf 30da 3929 4aba 753f
000003b0: ee08 427e a526 e4bf a04d 3c19 ae2d d7bf
000003c0: 2807 1c0e 8e02 e9bf b918 4d01 e6fa e4bf
000003d0: 6eb6 558b 3f63 e0bf b79f 6213 cd29 edbf
000003e0: 9db7 3eb1 1a20 e7bf a147 5b23 b624 b9bf
000003f0: 0aee 9324 0492 c0bf ba1f 5695 466e fe3f
00000400: bef8 56a0 3fbf e5bf f349 024d 286e e3bf
00000410: 0cc1 c3ca 2846 e7bf acaf ccdd ed3c d7bf
00000420: 24b1 55fe 451a a8bf 6733 6bbf 1380 b63f
00000430: c64b c63f b1e6 d03f 4d74 c9f5 8016 cdbf
00000440: 7677 0215 1059 d9bf 631e 2a50 c926 01c0
00000450: 5ea5 8c40 c363 d5bf 20e3 af8e 4f07 d2bf
00000460: 314d 90c5 6a61 e33f 46de d829 36f9 d5bf
00000470: df9c c438 b0be bdbf 1a5c e09f 5829 f2bf
00000480: 7682 66aa 1d71 d9bf 2673 541b 10f8 cbbf
00000490: 5fd1 0aaa 663a d0bf 6ab7 0e6d 2cd3 d5bf
000004a0: 08cd 88d4 3bc5 e4bf 8a7f 7c5f 9796 d6bf
000004b0: cc47 698e a1a4 dabf 75c5 4ab3 a1c3 bb3f
000004c0: a6e1 18a8 de7e c8bf ad54 356a 216c d8bf
000004d0: 1649 fd9d 31a1 d2bf eecb bc47 60e2 d63f
000004e0: c769 7375 25af 823f 95c9 8edc a00a af3f
000004f0: ad85 7e0d da89 e0bf fad2 a3a6 e315 e4bf
00000500: aa3a 2d0d cb59 c03f c5e7 d253 4015 c1bf
00000510: 2838 3fba 0e36 d6bf d70f bcb3 a608 dbbf
00000520: 61e5 0005 8705 d0bf e11a 14f2 2a90 e5bf
00000530: e442 5de9 24d7 d7bf d1cf c5f8 d6da d23f
00000540: 5aa5 da45 86af 7c3f e686 0160 f20c cabf
00000550: 56bb 79e9 d92e e9bf becd bd05 3a53 c7bf
00000560: c5e1 fd0d fe36 c23f 98c5 d391 3dbb cfbf
00000570: 97e4 49bd 8778 e3bf 45d3 aaed 4249 f1bf
00000580: 44c2 9f75 4918 e7bf 7263 dbfb 98a8 f1bf
00000590: 7b9a 9b51 dc13 c03f 283c 89b4 244f d1bf
000005a0: d039 11e4 f12d d7bf dadd 38ab 0750 cfbf
000005b0: 26d9 7eeb ef03 d9bf 768a 087d 1f53 a9bf
000005c0: b330 a143 65e6 eabf ffb8 8191 6a9b e4bf
000005d0: fa65 f4ec fc8f e7bf 251b 6360 98d0 ddbf
000005e0: 5cb5 4e3a a037 cebf 6ceb d335 eec2 d5bf
000005f0: dcca 3201 f5ab b8bf aedc d3c0 110d d8bf
00000600: 8f65 b30d 3185 f7bf f373 fdf7 7c74 e9bf
00000610: 32b4 67a9 1b60 03c0 4c50 e6e8 9172 dabf
00000620: d688 97f8 b0a1 d9bf 310f ac44 d144 abbf
00000630: 5c39 9e7f 382a bc3f 0582 1dc6 9299 c8bf
00000640: 1a0a 7209 3bb1 edbf e646 351d b817 d8bf
00000650: 1477 8964 f31d eabf f30e c56e 2235 e0bf
00000660: e230 16e9 f151 e3bf a574 0624 9547 abbf
00000670: d661 2d37 e7d9 ccbf e132 27eb 9441 bfbf
00000680: fd08 7b88 c202 d7bf ac1d 7477 b810 e7bf
00000690: aec2 55f6 9245 e5bf 7e27 05cd 935b debf
000006a0: 3ca0 4441 3231 e0bf fc9a a53c 098f d0bf
000006b0: 65ac 7a79 62c5 e1bf 2abf 59a6 6835 da3f
000006c0: 1775 36fd e835 cebf 20e9 9f96 3837 d6bf
000006d0: bacb 4601 78b4 dfbf c36f 1bca 134d d1bf
000006e0: bef0 f7bb 1034 b43f 128f 1d4f 4431 d43f
000006f0: 2b1c 6de7 94dc a03f e67f d721 77c3 ddbf
00000700: 5840 63a2 e6b9 a53f 6b81 ddef a02a f6bf
00000710: 2fa5 03c7 41f8 d9bf 8907 11fb bea4 dabf
00000720: baab 3f41 8376 d53f 084e eedc a86b c6bf
00000730: 84c8 b9a1 382c d2bf 6f17 3cf9 0cbd b9bf
00000740: f56a ceb1 1fa2 b5bf 32a4 15f1 25dd 95bf
00000750: 7235 9374 2caa e43f fa0e 005b fb50 d1bf
00000760: 5b8d 2066 21b4 b3bf 148d cbc2 af41 cd3f
00000770: 92e1 486a 752e e3bf bea6 4a43 3376 e0bf
00000780: d9cd f644 b730 d1bf 45b7 c64d de00 ccbf
00000790: 5a21 5848 62e4 d9bf 6e17 2be3 dd4c b4bf
000007a0: e16e e605 dc4f e3bf 4e5c a95c 41ae d1bf
000007b0: 4aa8 718b 8a15 d3bf 3c0f 4386 ae75 f1bf
000007c0: 517a 521a 0520 e5bf f002 094c f0aa edbf
000007d0: 822c ffbd 6b68 0640 2ce0 934e fd74 d4bf
000007e0: 4d6b 17c5 e57b d0bf e051 b76e d377 933f
000007f0: efc7 5168 fc46 c1bf c40b 548b 9062 debf
-0.15317349190349527 -0.39533736048867774 -0.7874857827651247 -0.35517054816994775 -0.5261378287016503 -0.8679256129952581 -0.0892613608371808 -0.3254494843016388
-0.12828827635589402 0.5101755680044933 2.6027817865051333 -0.8634752983694662 -0.8364512597497027 -0.4443904098672914 -0.09159899907636346 -2.185039202535103
-0.2951237311584514 -1.6666675676512324 -0.6676462168109261 1.7137266112778204 0.23571778782438746 -0.385716567666598 -0.3207797648750459 -0.6218589738503923
-0.5585582487723151 -0.3669877675993477 -0.1600779000664579 -0.7102653322114104 -0.2007327287538865 -0.045615612290107105 -0.16656537962133447 -1.6426632175405385
-0.3846582918433049 -0.2230702472634326 -0.3253013505692345 -0.3390069609665555 -0.1668549136884157 -0.5497717033440719 0.2096044376863567 -0.762432133366106
1.8762731140335691 -1.4693929400223997 -0.33724759928882214 -0.08954671816068731 -0.9189390338297141 0.43405509616839755 -0.9738265335789753 -0.3835936058835803
-0.3260720205668294 -0.8442041655472526 -0.3911613785194935 0.5001319295364836 0.3353935774149629 -1.4167383824428064 -0.34980353991920904 1.1558290168181589
-0.3882684262725841 -0.3382261252236608 -1.0453916944506938 -0.19755123207498274 -0.4820492248939531 0.23264352927205645 -0.43169492557376665 1.5355000207292855
-0.7461421956561198 -0.9888709326218188 -0.24189112032236398 -0.16960384685691052 -0.394266403618193 -0.37378238460893104 -0.2101665323341228 1.0870959014600095
-0.44197559327678326 -0.2651694274121987 -0.5991759633245557 -0.45258289654144956 0.013969087235337583 -0.25691621234426726 -0.779042586037827 0.19467220567867027
-0.4161116220621166 -0.06386313259940382 -0.3360498541649587 -0.5608738304437931 0.0007870340751190384 -0.8933909389520049 -0.38545056263566835 -0.5046515271710184
-0.6867045560615652 0.3245006629238715 -0.4341819417270921 -0.3365647215594231 0.25642659047572225 -0.5380079010512682 -0.08165320118760537 0.14586157027055371
-0.2021376736849992 -0.7392617516262308 -0.4262144526661691 -0.28118986694798276 -0.20417086827402364 -0.9587783822818299 -0.44350434591152066 -0.787398679810525
-0.3854419593292167 -0.5104681300221615 0.20233538799253523 -0.29342275949830754 0.054156121668174885 2.337167774082328 -0.008410523221489693 0.16378651275909878
-0.7174093634473605 -1.009364087727242 -0.39685363324935763 -0.1797060272449907 -0.40052674422901946 0.005304612819250695 -0.6297175851798593 -0.3621630903664599
-0.7815618777824271 -0.6556272530949833 -0.5121152612097839 -0.9113526705377727 -0.7226689779106327 -0.09821642268369014 -0.12945606027629736 1.901922782273671
-0.6795957690844927 -0.6071969513016583 -0.7273143730399467 -0.3630938211451802 -0.047075450226517185 0.08789180205640222 0.2640803454207198 -0.22724925996127113
-0.3960609631702633 -2.1439386618474585 -0.3342140322079866 -0.28169621404917855 0.6056417330422957 -0.34333566748270916 -0.11619092355668979 -1.1350942845508656
-0.39752904549280943 -0.21850777945010086 -0.2535645161217612 -0.3410140099539293 -0.6490763808309632 -0.35294136357151074 -0.416298283647049 0.10845385195968567
-0.19137175758238562 -0.38159976360231945 -0.29108848980571744 0.3575669003068346 0.009123127600493398 0.06062796299319754 -0.5168276084479452 -0.6276720289884843
0.1277402700747719 -0.1334610375686777 -0.347049409753597 -0.42240302612503683 -0.25033736694930125 -0.6738486030670537 -0.37250635900004014 0.2946069173260613
0.007003330710781819 -0.20352010429183237 -0.7869691429203651 -0.18222737579672627 0.14230323489370114 -0.247901626782135 -0.6084631630939324 -1.0803860935095184
-0.7217147157044299 -1.103661521736481 0.12560609802968145 -0.27045552854991906 -0.3621792533130277 -0.24462982044654674 -0.3908653068314315 -0.04946230317388693
-0.8406244583980168 -0.6439717142036726 -0.7363266590138544 -0.46585664189153625 -0.2360725674347276 -0.3400226140653817 -0.09637385634668355 -0.37579768973177863
-1.4700174842058435 -0.7954697459750818 -2.421927760579387 -0.41324279541118325 -0.40049385334544974 -0.05325941050798944 0.11001923671412811 -0.19218668626400884
-0.9278845962983866 -0.37644770481447976 -0.8161560977566489 -0.5064861453506339 -0.6037530472254071 -0.05328050675164179 -0.22539987749293172 -0.12209444752734157
-0.359543450624315 -0.7207910855367365 -0.6647429286222939 -0.47433943768975684 -0.5060054087416641 -0.25873022959278535 -0.5553448078766335 0.40950981373952067
-0.23602020610716387 -0.3471204253143174 -0.4953899395433684 -0.27032942521122666 0.07891945447039725 0.31550700880164684 0.03293290448214522 -0.46505525879729104
0.04243393642684684 -1.3854073877083362 -0.4057774013040953 -0.41630529897894825 0.3353584420389627 -0.17516051089897666 -0.2839490489342398 -0.10054093441803301
-0.08450506297087286 -0.02135142597163426 0.645773151097883 -0.2705677403139216 -0.07696732276285927 0.2285670949123434 -0.5994212222931756 -0.5144287409104533
-0.2685983823277787 -0.2187765006796615 -0.4045644480215934 -0.07929789348699298 -0.603498469852152 -0.2762607006929486 -0.298189769912487 -1.091230892620799
-0.6601586832146699 -0.9271165356695672 2.8009867518899805 -0.3196404712066421 -0.2575621056291098 0.01901178706414608 -0.13497881978724943 -0.4747659073474859
