lab4/trained_rbm/rbm.pen+lbl--top.bias_v.npy (npy, 4208 bytes, 1 tensors)

array f8 [510]
0	0x3fb865b35d5d1c3c	0.09530182866466047
1	0x3ffb873b428e8e69	1.7205154991032947
2	0x3ff0ff56cfd655a4	1.0623386496202807
3	0x3ff25372a264e9ff	1.1453729957125913
4	0x3fbd1125a1ad2fe3	0.11354289242916553
5	0x3fb4bb0adffa76e1	0.0809790417501648
6	0xbfd83f73756be17c	-0.37887274233755597
7	0x3fa724e9c86a3549	0.04520350047560357
8	0xbfdd6dc56106ee0a	-0.45982489085483336
9	0x3fd056bb0a7b5e60	0.2552936174738303
10	0x3fc574c6e5e873b1	0.16762624956109343
11	0x3faa72cd8c2ca178	0.05165712677109274
12	0xbfea0c0f34844dcc	-0.8139720941275583
13	0x3ff29f3e22b9b3c5	1.1638776165448104
14	0xbfca9292e8e9827c	-0.20759807942069475
15	0xbff21d5e1d214f60	-1.132169832028886
16	0x4000eb4a5fe29914	2.1148879519488535
17	0x3fd38a37a5f8a6fe	0.30531111915716724
18	0x3fe55bb3fb816e88	0.6674442207544908
19	0x3fdf1fddef966958	0.4863200034830206
20	0x3fec8f3fcd2cbab0	0.8924864775961705
21	0x3ffbdb09a278caa7	1.7409759851986253
22	0x3fe7b1168f3dee49	0.7403672025388427
23	0x3ff9be8d79905271	1.6090216396889014
24	0x3fee831c7315a9fe	0.9535047767397484
25	0x3fe585284a283408	0.6725045631770863
26	0xbfe7eac4aceecbce	-0.7474082353204439
27	0x3ff258a0e8f219bd	1.1466378306810008
28	0x3ffd159cfc73c011	1.8177766667759025
29	0x3fe8432fa9ad0ece	0.7582014383301272
30	0xbff87749559d2056	-1.5291226715362618
31	0x3fd81e9358e55484	0.3768661850093127
32	0x3fdb624bdc750ce6	0.42787453202272585
33	0xbfec952715a4bd8e	-0.8932071135258626
34	0x3fb739f4a59b60b5	0.09072808306825915
35	0x3fd265bb062d368b	0.2874591408079616
36	0xbfd74cbc0646dd18	-0.364058500413607
37	0x3fdd5a5624d494be	0.4586387023612807
38	0x3fb06bca84219023	0.06414476133210249
39	0x3ffb70f5033f7984	1.7150774123070684
40	0xbfec74866c7ebd60	-0.8892242545170284
41	0xbfd201ea751a4058	-0.2813669341640028
42	0xbfac670a10089d60	-0.05547362752650531
43	0xbfb0c67c019c35e6	-0.06552863158523045
44	0x3ff316e27ba4f3b6	1.193087084756582
45	0xbfe429c07b5ddd2a	-0.6300966653351783
46	0xbffa1687a490b5bc	-1.63050045283613
47	0x3fedcb3dbfe17bbc	0.9310597179099811
48	0x3ff4407c94edc417	1.2657438104181489
49	0x40037ad6a50fa836	2.434979714908901
50	0x3fdb040aad690316	0.42212168631162805
51	0xbfbb6355fb305337	-0.10698449499643635
52	0x3fb19f385015a94b	0.06883575396719725
53	0x3fccda68d3a974e2	0.22541532836013461
54	0x3fe420d9fe7b9d56	0.6290101976746125
55	0x3ff68edbb7c5b232	1.4098775080302741
56	0x3fe84ba1957f05c4	0.7592323226783084
57	0x3fe89f45b7c56c12	0.7694424237519135
58	0xbff87a05fd5bf64f	-1.5297908684582529
59	0x3ff12368d0d423a9	1.0711448819513214
60	0x3fe5912f506a25b4	0.6739727564428706
61	0xbfec7a711eed69bc	-0.8899465183306385
62	0x3ff3cf951f22f579	1.2381793228408624
63	0x3ff1c67b8ecc151b	1.1109576776519308
64	0xbfe4ba360e05c9f0	-0.6477308534506943
65	0x3ff2c89e6f4cad4d	1.1739792201650119
66	0x3ff04ee5dad7ca86	1.019262175421916
67	0x3ff34b5fd3fb35ec	1.2059019356269074
68	0x3fe75f84232a41c6	0.7304096876924226
69	0x3fea31e948b9c9b8	0.8185926838325974
70	0x4000aaf183cc9cfc	2.0834684655015945
71	0xbfc97056f27a6dfd	-0.19874083366163112
72	0xbff763b804b79b57	-1.4618454155222105
73	0xbfdec256370fc8dc	-0.4806113755904684
74	0x4004c1cb76398451	2.5946263538649323
75	0xbfcd03bd34ef5d36	-0.2266766079398878
76	0x3feaf6eab2c0bce6	0.8426412097232088
77	0x3fe5441e77a9595a	0.6645653092516952
78	0xbf81605e758baf14	-0.008484590494354495
79	0xbfd1a26b3da5d0a8	-0.2755382635143726
80	0x3ff66f98907a7abf	1.4022451060952077
81	0xbfe827538da7db34	-0.754800583525912
82	0xbfd51de24789e9b2	-0.32994896875575386
83	0xbfcfe8d05553cb9e	-0.2492924133908589
84	0xbfe91c3eda63d9aa	-0.7846979394369573
85	0xbfef4e7cdd055fbe	-0.9783310238662961
86	0x3ffa4c633f20e8da	1.6436493364295104
87	0x3ff0250a0cf9b821	1.009042788205541
88	0xbff06fbc2cc135ea	-1.0272790668708418
89	0xbfe81c089fb41afe	-0.7534220809182839
90	0xbfe96e751c201c68	-0.7947335767102119
91	0x3fd26f88521a8e34	0.2880574037355672
92	0xbff56fa3b6518a68	-1.3397557374779812
93	0x3fe6b2ac974965ea	0.70931081340967
94	0xbf86915c7dc1a35c	-0.011019442165165642
95	0xbff1d77bc8d3dbfb	-1.1151082844569362
96	0x3fc3f874d292e067	0.15601978570862515
97	0x3ffba9a1bfcb228a	1.7289140216763905
98	0x3fdbc48a38fc725e	0.4338708454613761
99	0x3ffbeb0e490399f8	1.7448866703140293
100	0x4000cd5fb202d765	2.1002801806561586
101	0xbf70b969911b9c6c	-0.004083073015613708
102	0x3fec4a12efa2dc28	0.8840422325510007
103	0x3fe24ec3737a8cb2	0.5721146827167074
104	0xbff02de32ec523b8	-1.0112029864269356
105	0x3ff83df09801ff44	1.515122026234125
106	0x3fe2482f4c5b78ab	0.5713116160730086
107	0x3fd8a67640143763	0.38516002900802543
108	0xbfd028c57eba2ce9	-0.2524884927340297
109	0x3fc2f58c69d81ecc	0.1481185452287178
110	0x3fc333747fd4e68b	0.15000778428821024
111	0xbfd808049e9d5b1e	-0.3754893826457407
112	0xbfcc7cee76b64933	-0.22256260677802117
113	0x3ff9699dd5256df3	1.58828528652418
114	0x3ff0a26baa1ddae5	1.0396534581356545
115	0xbff649ef209b90b0	-1.393050315259682
116	0xbfdf175896593295	-0.48579992945159606
117	0x3fe7d60c0a0ee6e8	0.7448787876557761
118	0x3fe31af340b23ec4	0.5970398200606373
119	0x3ff60a28116b50ad	1.3774796181142321
120	0x3feee69d1fb04088	0.9656510943332401
121	0x3fe6da4df13672ac	0.7141484938798235
122	0x3fe5e49746db27e2	0.6841541656406174
123	0xbf9430443edbf828	-0.0197153724066014
124	0xbfbb4ac15c3d98d1	-0.10660942556350796
125	0x3fc02c246a58dcdc	0.12634711449366065
126	0x3fc96fd23be842ac	0.1987250130191759
127	0x3fe26de693c944da	0.575915611882148
128	0x3ffd0d891e08c401	1.8158045933926135
129	0x3fe5bb883049b662	0.6791420882343113
130	0x3fe5c8d9c7286a1a	0.6807679071237687
131	0xbfe23cbc323cb890	-0.5699139577098027
132	0x3fe2977b53797a0e	0.5809914236413662
133	0xbff37904a5933d34	-1.2170454471377754
134	0x3fd9bd85e6a5c92a	0.4021925690095879
135	0xbffedf84631ac882	-1.9295696135782525
136	0xbfc97b3b105cf077	-0.19907320307709472
137	0xbfb9b23609edc999	-0.10037553541568513
138	0x3ff085020a53e3b3	1.032472648947288
139	0xbff0cf469ef1d029	-1.0506044586918597
140	0x3ff4431cd00a2247	1.266384899763709
141	0xbfdb047fcb8a58ea	-0.42214960934633317
142	0x3ff32f2e3e44542f	1.1990187103558687
143	0xbff958d1bac7f022	-1.5841843887456055
144	0x4001973ed5a084d1	2.198850316010614
145	0xbff79d2cd8c73c8d	-1.4758728473568994
146	0xbf9c8d1a24bf6818	-0.027882011883640784
147	0x3fe2ac743b19482e	0.5835515169403658
148	0x3fe977b920160cc4	0.7958646418268462
149	0x3fc3d3db4fadcc2f	0.1549028529221643
150	0x3fc701e45ce03c7a	0.17974524054486435
151	0x3ff48771956ccbf4	1.2830673062242086
152	0x3fd085ddb5c9578a	0.2581705355890952
153	0x3fd709bd27638878	0.35996941420137984
154	0x3fc387578ee71dd2	0.15256781079936715
155	0xbff3a32bb53d5e41	-1.227336605041174
156	0xbffec509b283dbb9	-1.9231049512143115
157	0xbfa8944bce2ccd77	-0.048006409566734236
158	0xbff4bbbff45e7ddb	-1.2958373590153005
159	0x3fe7c838cefd5e3e	0.7431911509292559
160	0xbfee49b218a7c68a	-0.9464960557508715
161	0x400101708696753f	2.125702907053579
162	0x3fee46727122de1c	0.9460994920436323
163	0x3ff5707abb7c5524	1.3399607967051645
164	0xbffbe629e9d087f9	-1.7436923154241397
165	0xbf60ea2750c9a810	-0.0020647781259883827
166	0x3fd9d0b224aefb52	0.40336278517127255
167	0xbfe0fe8ef06148c1	-0.5310740179941363
168	0x3fe68fdf9efeacb4	0.7050626855247146
169	0xbff1af2096f72f52	-1.1052556893436827
170	0xbfc502a2d0c3b07c	-0.16414294427466192
171	0xbfd657b4088ee15a	-0.3491029819083643
172	0xbfc804adcaeefe8e	-0.18764278801790052
173	0x3fcd5fb9305e524d	0.22948374616375347
174	0x3fee0e1fbf50e908	0.9392241226808276
175	0x3fee4c1e7b721c5c	0.9467918788003646
176	0x3ff1fcf24671fca5	1.1242544891136188
177	0x3fc6f31472d09c53	0.17929320913501332
178	0x3ffd99843320255e	1.8499795910923562
179	0xbf9fa6cd4ab8f97a	-0.030909736333563732
180	0x3fd536a393b3b26d	0.3314598982240458
181	0xbff39002366dd8f3	-1.2226583601127998
182	0x40024f602ec062d7	2.2887576725446297
183	0xbff46078b2387af9	-1.2735526048415393
184	0x3ff6f672c632fa11	1.4351680509713598
185	0x4002fc9c9762b060	2.373345549296616
186	0xbfe410e3a12bdfa0	-0.6270616672400031
187	0x3ff675002b49cc60	1.40356461438639
188	0x3fdfd86aec49c562	0.4975840861798898
189	0x3ffc4c0e83ccbc4d	1.7685685299327532
190	0xbfdb8c36949a352e	-0.430432934875017
191	0x3fe64f10a57d332a	0.6971514923294297
192	0x4001de75939267b3	2.2336226967863353
193	0x3ffafdfdc27e4718	1.6870095822709512
194	0x4002b54dae85f7ea	2.3385270723947444
195	0x3ff32b91cad5acd2	1.1981370852689008
196	0xbfb426ec6af31319	-0.07871892558166528
197	0x3fd14f7ddf1e20bd	0.27047678746067644
198	0x3fcc2c8630fb0e55	0.22010877029070977
199	0x3fdd8732b4d80332	0.46137683544661734
200	0xbff1e852d7daba7c	-1.1192196304142774
201	0x3fef3bbed643dd6c	0.9760431465974029
202	0x3fd5725ba8539cfd	0.33510486066957396
203	0x3febd0cb80008318	0.8692376613654202
204	0x3fe8ea507c8c00dd	0.7786028320843134
205	0x3fe4e8beb276b732	0.6534112439746649
206	0x3fffe499f3d9f66b	1.9933108830877255
207	0x3fe53d5bfa12b41d	0.6637401470412702
208	0x3fee20a69578fa5c	0.9414856833826195
209	0x3fd6933eed39fcd2	0.35273717085506207
210	0x3fc8e5a064413aab	0.19450764556173303
211	0x3fe4c7bff4ed0a9a	0.6493835242948365
212	0x3ff921d6dcc78ac1	1.570761549396295
213	0xbff982227421310a	-1.5942711387934332
214	0xbfd69b4131767391	-0.35322599249212155
215	0x3ff31173017164a6	1.1917600685467646
216	0x3ff67d2667f0e169	1.405554204959197
217	0xbfd31c8621a0e026	-0.2986159637835065
218	0xbfe485bdb53d46a6	-0.6413258113700138
219	0x3fe3269e9f04d5ca	0.5984643083417549
220	0x3fe2141756b21fde	0.5649525349881477
221	0x4000435f1eb92bbc	2.0328962707767158
222	0xbfab6468f03f8bc4	-0.053500441863227916
223	0x3ff05e1f21b6f1b3	1.022978908250576
224	0xbffc01cbdca512cf	-1.7504385584772313
225	0x3f9217f170077314	0.01766946073790894
226	0xbfd3d291e8e90038	-0.3097271704209592
227	0x40017a0d9c6c27e5	2.184596273470549
228	0x4009b30a2b140462	3.2124217381938687
229	0x3fcc7bd3ac493915	0.22252889549640345
230	0xbfdf3899607c413e	-0.4878295366516062
231	0x3ff6a1ade07798e1	1.4144724624871332
232	0xbff11af087fd1a8a	-1.069077044683271
233	0xbff58e2efd142f04	-1.347212780560711
234	0x3ff438a514d716e6	1.2638293088979764
235	0xbfc4bc32cf883bfb	-0.16199336179167276
236	0xbfeefe8ddf9b27b0	-0.9685735099130763
237	0x3fd3440184a2e65a	0.301025752570785
238	0x3ff912f569384e63	1.567128573432364
239	0xbffd4df16cf69da9	-1.8315290695553392
240	0x3fe72cd18bfcf59e	0.7242210134642624
241	0xbfd61698971bec8a	-0.34512915379281905
242	0x3fe2e29f8082070e	0.5901639470978084
243	0xbfc7f8a3cfc805a9	-0.18727538724492135
244	0x3fcade8fea3f4be8	0.20991705835203267
245	0xbfe47adcc00b5c52	-0.6399978400103328
246	0x3fee0af27010744e	0.9388363064532628
247	0x3fe1a05e43f8b1ab	0.5508261992995832
248	0xbfda0d5084d5c37c	-0.40706265422982546
249	0xbfeeec2a94f247e8	-0.9663288983449521
250	0xbfe812f7fcee4e4a	-0.7523155155235568
251	0x3ff60793ce883974	1.3768499438916395
252	0xbff4fc79acf03605	-1.3116394763377468
253	0x3fed5c4da61f8b68	0.9175174946397933
254	0xbfe27dd02a2d9804	-0.5778580497542412
255	0x3feac684cce1eb16	0.8367332460032653
