lab4/trained_rbm/rbm.pen+lbl--top.bias_v.npy (npy, 4208 bytes, 1 tensors)

array f8 [510]
0	0xbfb80242accd36d4	-0.09378449171819209
1	0xbfd877056610228d	-0.3822644707402468
2	0x3fd5b00c99a03086	0.3388701915980693
3	0xbfe1be3d9ec9922f	-0.5544727422062062
4	0xbfc80f57831d55c0	-0.18796819593505454
5	0xbfb3f3fd46b3c1ea	-0.0779417321789492
6	0x3fcedc164c5675c8	0.24109152533939793
7	0x3f52ef7c546968f0	0.0011557306439927105
8	0x3fddac223c390efa	0.46363120919362155
9	0xbfca8e719cf9c5d7	-0.20747203984096416
10	0xbfd56dbbf287936e	-0.3348226421788273
11	0xbfa460ab056e473e	-0.039800018704353665
12	0xbfe015530ecc8fe3	-0.5026030816120478
13	0xbfd0b106fbfa0ef1	-0.26080488783939787
14	0x3fd93e2b8896c23a	0.39441955889472846
15	0x3faa60fe67372cea	0.05152125368075551
16	0x3fe816041b4a1228	0.7526875050539887
17	0xbfc3ed29a5419f64	-0.15567513054997584
18	0x3fdd6a236e71c364	0.45960317407212004
19	0x3fd2ef9a0c1557a4	0.29587413005844554
20	0x3fbd3055ce489689	0.11401878629893693
21	0xbfc29ab7b255cbe0	-0.14534660537500965
22	0xbfdfee2c0dc6a140	-0.49891187043478524
23	0x3fc370f153f1cd15	0.15188423727850223
24	0xbfdbdfe50f102cd9	-0.43554045172704786
25	0x3fc0a0ee103a1a3d	0.1299111918671815
26	0xbfd9e9eb12d2965c	-0.4049022373022575
27	0xbfd757608b8adcbc	-0.3647080767363595
28	0xbfd57a0ff93ecd4c	-0.33557509746897973
29	0xbfc385b76ab57c54	-0.15251820288082973
30	0x3fbfdc1cf29ab60b	0.1244524090095284
31	0x3fd84956a1c6d680	0.3794762210703553
32	0xbfe2a8339fa3f5db	-0.5830324285486158
33	0x3fcfd94278c33795	0.2488177385006877
34	0x3fe772cdf2a0b394	0.7327642191718149
35	0x3fd70220fcaed0f0	0.35950493503629755
36	0x3fd2058f5bd2e668	0.28158935515566563
37	0x3fbd572c7eed0f71	0.11461141680507382
38	0x3fd79f430ff68c32	0.3690955787553235
39	0x3fd261e899735098	0.28722586617846835
40	0x3fd65707c70bc952	0.34906191289987476
41	0xbfbf74af3a4df6d7	-0.12287421391917107
42	0xbfa81db093e51632	-0.04710151486737536
43	0x3fde3dfe6279dc26	0.47253379456327804
44	0x3fe949b528ece92c	0.7902475165676939
45	0x3fea8d8506f6a09a	0.829775346374862
46	0xbfa349b13b54283c	-0.03767160271861811
47	0x3fcf80dcd24f60c8	0.24612007397695934
48	0xbfe0760d38f74050	-0.5144106018651744
49	0x3fb7367f4aae9f76	0.0906753117875477
50	0x3fe6a5ca1a1e0aa6	0.7077379713158123
51	0x3fde8b945edf07d2	0.47726926102415945
52	0x3f766d488a1ce5be	0.005475314481196701
53	0x3fc1725b23481d7d	0.13630236838092094
54	0x3fd3baffec136d02	0.3082885556629692
55	0x3fbbd174adab2cef	0.10866479148824103
56	0xbfdadc431424e4fb	-0.41969372718047254
57	0x3fdb7a9d26b3b464	0.4293587568234385
58	0xbfc115be4a96d4bb	-0.13347605363893486
59	0x3fe4eaaf37e6f998	0.6536480037537329
60	0x3fd5715acca75bbc	0.33504362092702045
61	0x3ff139d673f0d142	1.0766205338414498
62	0xbfa0424303924c4d	-0.03175553721043709
63	0x3fdcb084079d6b5a	0.44827366584438766
64	0x3fd87658d2932d6e	0.3822233253856301
65	0x3fd23daa31b31d32	0.2850137219761165
66	0xbfd0193b6b1ff227	-0.251540045370151
67	0x3fe90cd560183bfc	0.7828165890549594
68	0xbfb0cc241cb10caf	-0.06561494541624556
69	0xbf98e26d5ed54f00	-0.024301251328622264
70	0xbfdc46161bf8c106	-0.4417777321969115
71	0xbfd73ad9b98862d4	-0.3629669486850109
72	0x3fe2ece77df9a2c8	0.5914189777805285
73	0x3fd637997394ee48	0.34714351928025566
74	0x3fe40e4ac687a9f6	0.6267446401155314
75	0x3fc171db4f07cd1b	0.1362871299639686
76	0x3fe702d1a749b9e0	0.7190941111892322
77	0xbfb57daaa16a29bf	-0.0839487690047127
78	0x3fdb76e0fef8262c	0.4291307916579139
79	0xbfc3c5c5173705bb	-0.15447295793096125
80	0x3fe310dcd6c5483a	0.5958084292162831
81	0xbfaaf580d85bd7c3	-0.05265429154489667
82	0xbfd04a130934fa7c	-0.2545211400901406
83	0xbfc8f769f35feafe	-0.19505047210244436
84	0xbfe1b80ac60f19b6	-0.5537160747851917
85	0xbfbd2d43023eb180	-0.11397188954169302
86	0x3fd5c92c1978677a	0.3404035805448228
87	0x3faff9cf944245a4	0.062452780578620165
88	0xbfb24bd4587c80b0	-0.07146956596671106
89	0x3fd0eb825d11874c	0.26437434281080097
90	0xbfd529f62cf0d44e	-0.3306861342310342
91	0x3fdaacae68cef85a	0.41678962931826435
92	0x3fd295bbbec98014	0.290389000239885
93	0xbfc5a3a48c3b14e1	-0.16905648085791028
94	0xbfaeeb816adebe57	-0.0603905146557479
95	0xbfe25c835b1366e0	-0.5737931040596003
96	0xbfd4057430c8a10c	-0.31283287776979374
97	0x3fa24c13ff96ab6f	0.03573667998292406
98	0x3fd2210b8ccea2ce	0.2832669138975178
99	0x3fbd3d3c8f1a5df9	0.11421564573026179
100	0xbfbcb2083028f530	-0.11209155250340497
101	0xbfc083ef61025c02	-0.12902633892801424
102	0x3fdc8b5a1337a010	0.4460053622883615
103	0x3fc7cdadcbaf7d82	0.18596432157117354
104	0x3fb67644c81da808	0.08774213681832077
105	0xbfd55763caf7783d	-0.3334588510605306
106	0xbfb4c07e1e4b79ba	-0.08106220473880557
107	0x3fe121ac9b4d4636	0.5353606255759533
108	0x3ff1d568762ab43b	1.1146015754595868
109	0xbfc1436412474fa7	-0.13486910717494746
110	0x3fc422ef9174b1d6	0.15731615640960567
111	0xbfd764fba22e8595	-0.3655385097318569
112	0xbfd0d2186f6dd7f0	-0.26282320863481257
113	0xbfc642bfbe27d0ea	-0.1739120176786238
114	0x3fea2b7aea367f0e	0.8178076338262785
115	0x3fee67eb634e6120	0.9501854838918327
116	0x3fc985b478a422b2	0.1993928517406594
117	0xbfdfe1c4c4a0bf16	-0.49815482332177063
118	0x3fd506c3a2ac8963	0.32853785406236663
119	0x3f9630d7b3e694f2	0.021670694690006216
120	0x3fa3a34a1787c654	0.038355174419746035
121	0xbfd5c3860f35e864	-0.3400588177243036
122	0x3fc6a981e248d671	0.17704795407341892
123	0x3faaac1605d51abc	0.052094162189452814
124	0x3fe98775d213f63e	0.7977856734357329
125	0x3fe589e5d9f5ddae	0.673083234504636
126	0xbfde0dbba35c50d0	-0.4695881934469641
127	0x3fe9ac12fdace3d2	0.8022551493260102
128	0x3fd2b89e1785b432	0.2925181607923292
129	0x3fe097fca33eea6b	0.5185530842202984
130	0xbfb2c3bfc7248485	-0.0732993947208503
131	0x3feb0c7726833d98	0.8452716591072429
132	0x3f872170033a7d49	0.011294245813870634
133	0x3fe195209e1c62f8	0.5494540298560358
134	0x3fcb6fb7796bc48a	0.21434682301290692
135	0xbfabe79f546a302e	-0.05450151353315423
136	0x3fc88bd43d52e737	0.1917672442848983
137	0xbfdf0a94e89fea45	-0.48502085416081214
138	0xbfba4242178130e6	-0.10257351945728352
139	0xbfd1bd9be8c6767c	-0.2771978161998516
140	0x3fbef3980ab08922	0.12090444813705806
141	0xbfb1e96621431be6	-0.06996763526977609
142	0x3fe2798603b12203	0.5773344108684458
143	0x3fd0c9597a484bbb	0.2622893995441548
144	0x3fe0581d0d082674	0.5107560400512754
145	0x3fe1df019ed9215c	0.5584724524024227
146	0x3fcb30f81575d0df	0.2124319176470015
147	0x3fc62bf60d4b559f	0.1732165875352338
148	0x3fe1bac1e7b5e10a	0.554047539290907
149	0x3fd97c692c7485a8	0.39821843472790386
150	0xbfdc164094eb07ca	-0.43885817091733925
151	0x3fb25944a0ec3794	0.07167462281014841
152	0x3fd26e5617f3f9f6	0.28798439349330296
153	0xbfd5e3b9c76d998e	-0.34202427363779797
154	0x3fe3a8d2ad2cb4be	0.6143582708661126
155	0x3fdd4795f8dcdccf	0.45749425223352785
156	0xbfd3dc33ecc73424	-0.31031511423936053
157	0xbfd6326e6c6cb9e6	-0.3468280848345827
158	0x3fd4fa8b49be6e86	0.32779199792432967
159	0xbf713e84d7b934c8	-0.004210013310126111
160	0x3fd19d96fe3b85ac	0.27524351909058953
161	0xbfd1c743d62dc977	-0.2777871696081528
162	0x3fe51aa0d9c9c7f4	0.6595005277324604
163	0x3fac71ae0d66038e	0.05555480874591644
164	0x3fda19d8b795082e	0.4078275482935422
165	0x3fe36ec0d50329a6	0.6072696838758034
166	0x3fdb7874010e7704	0.4292268762891214
167	0x3ff34a9f60ac5e7c	1.2057184006024775
168	0x3fd2a28f9895d96e	0.29117193127549157
169	0xbfcd9e870cf00efb	-0.2314003766224387
170	0x3fd9f3d16c8ddb1e	0.40550647355068914
171	0xbfdfa9f77d1aa5f8	-0.4947489473075559
172	0xbfdd9536654fb73e	-0.4622322072381059
173	0xbfa8daa823a97c3c	-0.048543218949582884
174	0xbfdd5800fd899294	-0.4584963298750975
175	0x3fb345b03fcd8ac3	0.07528211171806291
176	0x3fd54587acf53b92	0.3323687733690629
177	0x3fd7e1a4143592cd	0.3731470296245732
178	0x3fd772c2e5d7e0d4	0.36637947507507573
179	0x3fccc96af7b56bd1	0.2248967847361585
180	0xbfe27f7d05a53387	-0.5780625448474986
181	0xbfd9923a1af87bbd	-0.399549986208452
182	0xbfc1828668d82e64	-0.13679580802305502
183	0xbfcd8623e4b34d19	-0.2306561342908047
184	0xbfd1207db441aaca	-0.2676080951993468
185	0xbfe18f313dae4845	-0.5487295345976767
186	0xbfd33ea8cb02122a	-0.3006994230748058
187	0x3fc262a906f0f1d1	0.14363587225842747
188	0xbfdee689760c42fc	-0.48282085922350837
189	0xbfde8d248bd4146c	-0.47736467032547725
190	0x3fe8ac5da9364268	0.7710407547875322
191	0x3fe79e92f51c5ec2	0.7381071841545792
192	0x3fbfae20872eec7c	0.12375071812032162
193	0x3fd1b0b7eaf83106	0.27641103693237346
194	0x3feffff47ef8e3fc	0.9999945144583076
195	0xbfd00a4edf3e6d6c	-0.2506291561237137
196	0xbfc2afbc5bdacc4d	-0.14598803029147903
197	0x3fb6565033d59c3c	0.08725453629959729
198	0xbfd56c0bc7abc0d5	-0.33471960543739715
199	0xbfe067537eb3a32c	-0.5126130556719537
200	0x3fc5790533ec38ea	0.1677557471779843
201	0xbfbd910a61b8ffd2	-0.11549439321333857
202	0x3fdfe34be6b3d1b0	0.4982480767205528
203	0x3f8c09bc05f8ccb9	0.013690442020651937
204	0x3ff1004989a6fc06	1.0625701310198123
205	0x3fe615236e049deb	0.6900803707875957
206	0xbfd85801db5efd1a	-0.38037153647378974
207	0xbfde688a0fd96460	-0.47513057277462245
208	0x3fde79cf6f8a7dc4	0.4761847104327581
209	0xbfd49fb5d555aa65	-0.3222479422899254
210	0x3fd3528905e5335e	0.3019125516482769
211	0x3feef625ff79a94e	0.9675474157095694
212	0x3fcfb49b062a2a02	0.24769914437304413
213	0x3fc814f74c097099	0.18813983166444784
214	0xbfc189523adaf963	-0.13700321077153452
215	0xbfb34d47231424a4	-0.07539791685498415
216	0x3fe30273e42f851d	0.5940494019270407
217	0x3fe5eed4c6fcfa72	0.685404194496938
218	0xbfdda0d12947451c	-0.4629404929265364
219	0x3fdd516c3ea68576	0.45809465521059367
220	0x3fabfce910983056	0.05466392829484394
221	0xbf91bb13033b4a84	-0.01731519419883877
222	0x3fda443f7de95464	0.41041552825965355
223	0x3f57509661d98a70	0.001423022134439702
224	0x3fe72c1a1fd69a6c	0.7241335508195568
225	0x3fedb34a47619f70	0.928136004845312
226	0xbfdb167a358005cf	-0.4232469103299907
227	0xbfde1642ac6393c6	-0.4701086696134634
228	0xbfce8837191e0be9	-0.23853195883211178
229	0xbfdeaa7384565808	-0.4791535179477937
230	0x3fe091ed20afc1e5	0.5178132666024423
231	0x3fd7707561362272	0.366238923008985
232	0xbfdc519a0d385c7c	-0.4424805764296662
233	0xbfc454d0f3a6592d	-0.15883838555300525
234	0x3fc416923854b33e	0.1569388175061252
235	0x3fa61c0d64c35702	0.04318277220742851
236	0x3fd2a61ee29f6db2	0.2913891995537724
237	0x3fead453e99d68ca	0.8384189188757543
238	0x3fcdb9e733a7ee02	0.23223581335319926
239	0x3fba9b7a16b2c5ab	0.10393488935621657
240	0xbfd50ea4dcc99714	-0.32901879845881976
241	0x3fdaa01d01abff9b	0.41602254069584327
242	0xbfda12c8efc12dc0	-0.4073965398171957
243	0x3fdc2f0cb4c8a0b5	0.4403716817346422
244	0xbf934c82cb9a9fd0	-0.018846553494455354
245	0x3fda85ec0edf729e	0.4144239564173321
246	0x3fc59eb613f66a71	0.1689059827302404
247	0x3fe0b8a33cd848a4	0.5225387752891675
248	0x3fd9f934635ec8ea	0.40583524421812334
249	0x3fc32ac42adf9c7e	0.1497426232665226
250	0xbfd7cba6f79e0170	-0.37180494481437787
251	0x3fd5c50d3ff7d9a5	0.3401520847977742
252	0xbfde13a143793c2b	-0.4699481161996483
253	0x3fe1e77421da8cde	0.5595036183553039
254	0xbfce1d7698cbd7c1	-0.23527414761309554
255	0x3fddd82aaa74cc88	0.46631876608007206
