lab4/trained_rbm/rbm.hid--pen.bias_h.npy (npy, 4128 bytes, 1 tensors)

array f8 [500]
000000 96 68 a4 a2 e5 c0 c5 3f ea 4d fd d5 b4 79 f9 3f
       0.16994924966349306 1.5922134741748502
000010 0a 27 45 80 e5 6c fa 3f 0a 6c 5d 37 68 a7 eb 3f
       1.6515860567619165 0.864185436377171
000020 c6 1d a5 12 02 ca b8 bf 68 d8 dd 00 a9 f7 f8 3f
       -0.09683239894103854 1.5604639085627472
000030 7c a1 eb f1 b7 8c 06 40 f5 64 e1 de e0 01 b2 3f
       2.8187102222474874 0.07034116212289006
000040 48 c8 dc ea 9b 65 d4 bf 02 ce 70 b8 2b c4 f4 bf
       -0.3187017243936947 -1.297893257590545
000050 10 1f 16 f8 1b 11 e9 3f 45 e2 d8 19 a1 0d f0 bf
       0.7833385320127224 -1.0033274659782745
000060 39 31 dd 0c 8a a5 00 40 56 4b ff fd 4a c6 fa 3f
       2.080829716205838 1.6734113618628803
000070 68 d2 7f b2 2d aa ec 3f 4e 0e 50 82 90 a7 ef bf
       0.8957737432779824 -0.9892046494646338
000080 ed e3 ab f1 a0 5b ff 3f ac 48 0a 12 0a 23 f6 3f
       1.9598702850619205 1.3835545258230395
000090 7d 83 31 92 3f 4b 02 40 84 70 b7 37 8b 99 d5 bf
       2.2867423459396705 -0.3374965709788358
0000a0 64 78 97 ed dc 53 03 40 3b 3c ca 71 4c e0 ff 3f
       2.4159487306451854 1.9922604031487612
0000b0 74 5d a5 69 f1 c3 d3 3f 8b e5 a9 9d 35 09 f9 3f
       0.30883441273677836 1.564748397706668
0000c0 a7 30 25 78 c5 fa f7 3f ad 18 0c 43 3a d2 01 40
       1.4987234776663543 2.2276501882616544
0000d0 6a 47 ee 6c 50 19 e1 3f c6 e5 a9 f0 5f 7b fa 3f
       0.53434010768454 1.655120792477065
0000e0 ee 26 a9 c0 30 9a 02 40 fa 22 34 74 15 8f e1 3f
       2.3252883006688227 0.5487162847140035
0000f0 94 2f 5d d8 ff e4 f9 bf 74 68 e5 37 a3 1c e7 3f
       -1.6184080554694207 0.7222457973214333
000100 34 c6 bb f9 bb 64 d7 bf 0a ee 27 19 ad 4d d3 bf
       -0.36552333248173174 -0.30161597687376285
000110 54 c3 0b f3 40 71 e9 3f 1c 44 05 ad 16 64 d6 3f
       0.7950749155989834 0.34985892197170343
000120 37 0b 11 9f 70 d1 e4 bf 6c 44 5f da 92 1e 05 40
       -0.6505663973588075 2.6399285373996033
000130 b6 a4 0f a3 d8 f0 b7 3f 18 e9 70 04 08 00 05 40
       0.09351877194389399 2.6250152918775136
000140 04 1a 33 38 04 f2 f4 bf a4 ae 9d d7 5f b3 da bf
       -1.3090860553071488 -0.41719814354176266
000150 52 9f 85 10 84 b4 da bf e0 19 a5 53 47 77 f0 3f
       -0.41726781476471786 1.0291207568530965
000160 6f a1 81 7c 88 87 0c 40 7c c9 a4 a4 24 5f c4 3f
       3.5661782958088035 0.15915353812449584
000170 0f 21 46 78 39 d2 eb bf 34 f8 ee 21 ef 7c fc 3f
       -0.8694121693706921 1.7805014920736655
000180 18 df 49 67 01 48 d7 3f 0c ba 5e 7b 24 26 01 40
       0.3637698658635471 2.143624271229106
000190 a8 bc 84 81 57 61 f4 3f c2 dd 54 0a bd 41 e7 3f
       1.2737650927845525 0.7267747117793351
0001a0 56 05 9f 38 57 31 e7 bf 7e c6 9d 82 c5 36 f7 3f
       -0.724773035610421 1.4508719541740045
0001b0 9b 94 a5 6f 99 8d ba 3f aa 7f 16 2a 40 24 94 3f
       0.10372313476325916 0.019669535225716274
0001c0 d2 89 15 e7 05 db fa 3f b8 9c 7c ad f2 ef f7 3f
       1.6784724261020654 1.4960810448481379
0001d0 f0 28 2f 90 3c 3c 01 c0 88 d6 9c fb 32 5e fb 3f
       -2.154412390174109 1.7104978397959787
0001e0 ae 7a dd da f9 be f1 3f 53 63 0e 66 9b 15 ca bf
       1.109124998991017 -0.20378439410412827
0001f0 07 b4 18 14 b6 e9 04 40 fd 00 e3 4e f6 a0 f6 3f
       2.6141168184317425 1.4142973977578202
000200 af 35 d7 0f cc 8c e6 bf f7 3b b5 78 43 51 e3 3f
       -0.7046871480358073 0.6036698682381701
000210 27 63 84 f5 c1 a9 04 40 f0 47 c3 15 47 d6 ea 3f
       2.582889478781357 0.8386569428496369
000220 dc b9 07 d9 bd 69 f2 3f 6a 58 74 84 6b a6 90 bf
       1.1508158185712238 -0.016259841880206606
000230 e0 e9 00 21 d6 be ff 3f 78 91 5b e2 c0 67 d2 bf
       1.984090928001585 -0.28758260827296267
000240 49 90 30 7f 0c 20 e6 bf 33 8f 4b cb f7 ee f4 3f
       -0.6914122089551792 1.3083417836396165
000250 07 67 bc a4 5c b6 fd 3f 78 49 f9 aa 4d 2e 9f 3f
       1.8570219454763348 0.03045007091561433
000260 41 63 10 d1 cc 01 0a 40 58 b2 dc 56 53 80 dc 3f
       3.2508789380193837 0.4453323696386966
000270 3c e7 3c 38 6a b8 d8 3f ab fa f8 97 68 f3 e8 bf
       0.3862557934950137 -0.7797129600729326
000280 ff d3 09 a6 ba 63 f3 3f 14 10 c7 ad 24 04 ec bf
       1.211847923839059 -0.8755057710736787
000290 9c 79 b6 da b2 73 fc bf 0c f1 ff ba ae a6 e8 bf
       -1.7782467406719666 -0.7703469898547453
0002a0 6e dc 1c 10 48 26 e2 3f e2 a6 7d 90 14 4d e3 bf
       0.5671730341627048 -0.6031592199408033
0002b0 5f 97 37 73 db f1 01 40 76 51 31 7b 7d 9d e9 3f
       2.243094349035274 0.8004748731714659
0002c0 0e bd 09 d2 70 f2 e5 bf 90 77 78 f5 a0 6f e0 bf
       -0.685844812613057 -0.5136265558573871
0002d0 10 9c 41 a6 a3 e2 00 c0 bb fb 75 2a 6e 49 fa 3f
       -2.1106636990330188 1.6429273279788805
0002e0 44 74 9e 4b b5 25 04 c0 94 5b f8 b3 7b 77 e3 3f
       -2.518412199757707 0.608335353378481
0002f0 45 c2 b4 b5 56 86 e1 3f 18 0b 2e 73 02 3c e5 bf
       0.5476487683245713 -0.6635753869635179
000300 54 fb 17 6b e9 f5 f6 3f 95 05 91 8e 5b 29 f6 3f
       1.435037058195765 1.3850970810893604
000310 79 c3 10 b1 ba 66 8d 3f 8d 46 35 e9 d3 a6 fc 3f
       0.01435609677182169 1.7907294377986631
000320 04 84 89 6b 0f ec fc 3f 5c 6c 29 09 94 63 e2 3f
       1.8076318932219246 0.5746555499021144
000330 0e e0 b3 67 a2 b3 e6 3f ba 12 3a 24 e8 e1 c3 3f
       0.7094280267183437 0.15533162850274157
000340 64 9b bf 2d 9c 8b e7 3f 93 a6 27 10 dd b6 e0 3f
       0.7357922452473358 0.522322207977782
000350 6b 74 e8 f4 b5 14 fb 3f 8c e3 2a 28 25 45 e7 bf
       1.6925563399047643 -0.727190569355217
000360 3d 7a 9c 64 8e 42 e1 bf 3b a9 14 27 71 db e4 bf
       -0.5393745389045034 -0.6517873538298667
000370 23 0a 8f b7 ec 99 f3 3f b9 11 33 72 34 a2 89 3f
       1.2250792665732966 0.012516412482349236
000380 c2 38 29 57 1a cf e6 3f 2e 2d 00 71 d0 b2 e3 3f
       0.7127811148036687 0.6155779082340922
000390 9a c1 62 d7 41 46 07 40 e3 3c ee c9 ed 33 e3 bf
       2.9093052699101465 -0.6000889724690776
0003a0 24 47 1d cf bb 12 d5 3f 25 0d 33 08 b5 00 f6 3f
       0.3292684099770773 1.3751726455964868
0003b0 3f d7 ac cb 93 24 f4 3f 12 0d 5e 4c 25 33 d7 3f
       1.258930011373607 0.3624966855788482
0003c0 42 8d 42 6f 74 7b ff 3f f9 43 79 4b 5b ee 03 40
       1.9676403375713822 2.491385068548422
0003d0 b8 a5 b4 92 a7 0a ec 3f 40 26 a2 f2 12 d5 d0 3f
       0.8763006081909941 0.263005005785633
0003e0 f4 e3 eb aa 44 3c e7 3f 5c 09 a7 cd 87 8a e9 3f
       0.726106962042762 0.798160459198964
0003f0 b0 cf fd aa 32 63 ef 3f 6c 1b 2b d1 42 20 ef 3f
       0.9808591212918056 0.9726881108589231
000400 8b ca 14 e7 23 36 f1 3f 0d 30 7e 1a 26 2c f8 3f
       1.0757178331956847 1.5107785258178439
000410 ce bf 90 6f 35 ff d0 3f 48 f0 e6 e8 5e 63 e9 bf
       0.2655767049318428 -0.7933802174443452
000420 84 47 a9 90 17 9d c9 3f 82 e9 fe 9a 26 40 c6 bf
       0.2001065689424274 -0.17383272712852366
000430 16 52 92 6e ef 9b fb 3f 70 5e ca 48 ca 83 d9 bf
       1.7255701369477996 -0.39866883381316764
000440 99 2b 76 f0 06 0d ab bf 04 ae be 7b 76 45 e3 3f
       -0.05283376393625545 0.6022293488398991
000450 d2 0b 7f 55 3c 2a bc 3f 6e 19 af c4 83 20 dc bf
       0.11001946532546406 -0.4394845410100946
000460 27 dd d2 dc 08 a4 b6 3f 08 d2 5e 85 ee 94 04 c0
       0.08844046965792939 -2.5727205676614666
000470 ad e0 75 e4 b6 a9 f3 3f 3b 1d 15 19 4e b9 e9 bf
       1.2289341854321194 -0.8038702478305945
000480 6f 85 e8 6b 92 a7 d5 3f fc 96 da 3b 5f cc ea bf
       0.3383527807037216 -0.8374477547665431
000490 d8 90 88 9d 21 9d ea 3f 0b b6 85 5c bc 87 cc bf
       0.8316810681176561 -0.22289232747736806
0004a0 3a c6 6b 20 ff 3a 07 40 87 2d cd 16 f8 22 f2 3f
       2.903806927956592 1.1335373774225859
0004b0 2c 90 b4 85 22 e9 d0 3f 28 a8 18 41 67 50 ef 3f
       0.26422942216072687 0.9785648604786319
0004c0 9f e9 74 9d 96 67 f5 bf 7d 8b 7c c4 2e 62 f0 3f
       -1.3377901220943398 1.0239703822378197
0004d0 ee 16 2f 8f 58 74 bf 3f 94 1a 69 ef 33 c5 e8 bf
       0.12286904807759999 -0.77407261619449
0004e0 28 b5 a5 90 b0 9b da bf 19 3e 5d 6f c2 7d d1 bf
       -0.4157525456019635 -0.273300751451616
0004f0 9b 0b 2a 75 9a b4 ec bf b6 a9 9e 8b 84 4a d2 bf
       -0.8970463074077658 -0.28579820284599167
000500 a2 9f 0e 67 90 01 00 c0 8d 17 da ab 0d 7f f4 3f
       -2.0007637072885283 1.2810188973394105
000510 8a 06 85 89 78 31 e2 3f b4 38 5e 96 13 ff 0c 40
       0.568538921921758 3.6245490787033194
000520 b5 91 08 c2 10 b0 fb bf 35 49 f1 ca 5d e5 e6 bf
       -1.7304847316200782 -0.7154988254281195
000530 40 4f df 65 e1 60 ce 3f 83 8f d5 a3 8f d4 ab bf
       0.23733155702813669 -0.05435608744554001
000540 e9 8f 58 15 d2 d6 f0 3f fe 0b 39 e1 4b 82 e6 bf
       1.0524464448762905 -0.7034053229220942
000550 52 ff 77 5f be 70 e5 3f bd 2a e4 23 ad f3 87 bf
       0.6700126518844434 -0.01169524446279035
000560 4c 24 d9 97 2d f3 ed bf 30 c4 75 1b 76 4d e1 3f
       -0.9359348264489511 0.54070573199545
000570 06 94 71 49 49 3c ec 3f 04 de e5 0a be 13 ea 3f
       0.882359164662035 0.8149099552965144
000580 4e 06 e5 3f 66 5f f6 3f ee 75 e3 1c 47 37 f0 3f
       1.3982908721813092 1.0134955528695815
000590 92 1f 13 5e 9c 10 03 40 89 0a 70 4f 40 31 0a 40
       2.3831107472978568 3.274048443419194
0005a0 c7 9f 92 08 e6 31 d2 bf 45 88 a9 ec 7e 1b e0 3f
       -0.28429556691343943 0.5033564207371987
0005b0 a0 4b 1a 23 df b6 c6 bf e3 ca 41 34 cf 18 e3 bf
       -0.17745579923629595 -0.5967784901279994
0005c0 6c 76 bf 4e c5 ce ff 3f 52 bc 1b cb 07 af 04 40
       1.9879811359491226 2.585464083465504
0005d0 31 15 91 1b d2 15 f2 bf e2 54 e6 ba fb 28 ed 3f
       -1.1303273274255157 0.9112528467545895
0005e0 09 ea 4d 50 dd e3 8e bf 93 9a ef 53 98 ac 07 40
       -0.015083054555124613 2.9592749173637656
0005f0 70 75 49 2d a0 24 e2 bf 31 e7 df de 89 db f6 3f
       -0.5669709095488269 1.4285982805290127
000600 a4 b0 27 33 55 bd f2 3f d4 35 83 c7 b9 43 02 40
       1.1712238310092653 2.2830691897313304
000610 1a 30 55 e2 10 9d 07 40 de 6a ed 3a c2 a5 00 40
       2.951692360138634 2.0809368709281975
000620 31 5f 98 a6 54 06 c0 bf 94 fc 80 40 c6 17 e1 3f
       -0.12519319662600872 0.534152151092615
000630 96 a6 61 33 bb 9f ef 3f 02 5b 53 b5 f5 3c e1 3f
       0.9882484439414891 0.5386913815990229
000640 14 14 74 e7 7a 9d 97 bf 70 d0 52 ea 66 35 f0 3f
       -0.023061676384731625 1.0130376008283086
000650 1c cb 21 98 ca 09 e2 3f d6 0d 9b 4f d6 72 03 40
       0.563695237286399 2.4310728282159557
000660 f8 10 62 8b 63 c7 a6 3f 94 52 8f d9 c8 65 b8 bf
       0.04448996616796025 -0.09530310927886837
000670 e2 55 b0 26 9b 6f 0e 40 f6 f0 b8 fe 05 9b e8 3f
       3.8044951460421865 0.7689237570807836
000680 40 c8 ab b0 af d7 f8 3f 0e d1 98 18 70 64 b2 3f
       1.552657785531224 0.0718450603533862
000690 0f 02 f0 3f 28 df ce bf 54 05 27 14 81 97 92 3f
       -0.24118521806669022 0.018156067709928905
0006a0 d6 ec 28 30 d2 51 fe 3f b8 34 27 29 76 63 f3 bf
       1.8949758416409188 -1.2117826087517596
0006b0 bb 58 19 ff 91 99 f1 bf 36 14 28 80 17 1b f6 3f
       -1.0999927487187466 1.381614208804661
0006c0 4e 2d b4 dc e3 82 05 40 be 19 30 0a 0b 96 eb 3f
       2.68891117501122 0.8620658110601693
0006d0 e3 3e 3d 28 49 63 04 c0 df c5 5c 01 1a f6 c2 bf
       -2.5484793800059022 -0.1481354242946926
0006e0 16 86 1a bc 61 e9 ef 3f ea 98 a0 71 df 60 fa 3f
       0.9972389863871196 1.648650592667361
0006f0 bf 56 07 7e 62 08 c2 3f 48 74 60 22 7d 72 f2 3f
       0.14088088182204747 1.1529513686030146
000700 d6 09 da a5 29 bd 06 c0 99 68 7e bb 05 7c fa 3f
       -2.842364593235497 1.6552789043403549
000710 12 b6 4a ad ab 2a f6 3f 15 83 35 c1 6c 1f 07 40
       1.3854176301205183 2.8903441519218043
000720 2a 06 0b f6 82 1e 02 40 b4 4a 38 59 d7 d8 ce bf
       2.2648982259859354 -0.2409924684185022
000730 20 79 bb ee 47 29 e0 3f 84 f1 7c 16 28 25 f4 3f
       0.5050391829243246 1.2590714338722089
000740 8f 53 a3 1b b9 57 f4 bf 5b c9 af df 91 c7 01 c0
       -1.2714167670830852 -2.2224462008972927
000750 ee 0c a3 02 0e e6 ef 3f ee bc 03 29 49 84 ed bf
       0.9968328525068537 -0.9223981667581975
000760 cb 6b 46 54 b7 17 b7 3f 07 0e 5c 37 90 31 fe 3f
       0.09020562942025305 1.8871004259571025
000770 7a c9 a4 77 bd 03 d1 3f 91 fb c1 cc 9f 02 ff bf
       0.26585327800707825 -1.938140678248349
000780 3c 34 a3 b9 8a ff d1 3f 29 dc bb 84 a1 f5 f5 bf
       0.28122203949607516 -1.3724684891619836
000790 28 3d 07 da 4d 93 ec 3f aa 1f ec d3 4e 06 f1 bf
       0.892981458507994 -1.0640400198189846
0007a0 9e 96 38 c6 34 18 e8 3f 79 35 26 e6 56 09 a7 3f
       0.7529548522477005 0.044993129343406
0007b0 65 57 bf 21 45 04 c8 3f b2 14 df d0 03 5a dd 3f
       0.18763031146834944 0.4586190738448962
0007c0 7f b2 96 84 db a1 d0 3f a0 b0 4f 17 5c a0 f4 bf
       0.2598789973078865 -1.2891503248784275
0007d0 a2 53 ad 8c e5 fb ec 3f c9 ae bf b7 5f 79 db 3f
       0.9057491061781671 0.4292830748006336
0007e0 f7 b9 95 0a 46 f9 fc bf c5 7d c3 00 86 cb f2 bf
       -1.8108578122588577 -1.174688342078171
0007f0 67 00 c9 c8 b2 d0 01 40 ed 80 0a b8 27 62 db 3f
       2.2269035040226757 0.4278659150386506
