lab4/trained_rbm/rbm.pen+lbl--top.bias_h.npy (npy, 16128 bytes, 1 tensors)

array f8 [2000]
0	0xbfcf28345ad04b62	-0.24341444429645792
1	0xbfc85259516e331f	-0.19001308895203636
2	0xbfcb5ebfaf14af83	-0.21382900284640635
3	0x3f9d2501464c35e8	0.02846147529185386
4	0xbfc6ef6f19d4a2fb	-0.17918194543133112
5	0xbfce18b379158b9e	-0.23512881672203617
6	0xbfc3819a50584bd2	-0.1523926632222286
7	0xbfc2b92802044085	-0.146275521263764
8	0xbfc07ef762a1d4a8	-0.1288747054674435
9	0xbfd220370368668d	-0.28321624119562544
10	0xbfc9a6a74d247110	-0.20039836184231108
11	0xbfc7eb76e41169a2	-0.18687330375798888
12	0x3fbc094c381db8af	0.10951687212011295
13	0x3fa12f9f35f53b5c	0.033566451393758995
14	0xbfcc77b5f7e33364	-0.2224032841098974
15	0x3fbf29713e5fc3ab	0.12172611019901917
16	0x3fe86e3f4cfe52c0	0.7634579185274433
17	0x3f7698a86ac41702	0.005516679648513325
18	0xbfc6dc6546e09145	-0.17860094033052057
19	0x3fc9412bdca1a55e	0.1973013713170912
20	0xbfb1624f27826b2a	-0.06790632929407239
21	0xbfc28f77bed2eebc	-0.14500328843666022
22	0xbfc920c609192b58	-0.19631267017606535
23	0xbfcc27f07dff1e48	-0.21996885444808556
24	0x3f9b4f5462fa859e	0.026669806042837522
25	0xbfcab7f3dfb4d87b	-0.2087387888256592
26	0xbfd62dcc38893620	-0.34654527207462316
27	0xbfcb1cf038effecd	-0.2118206289305732
28	0xbfc7d5429d1a01fa	-0.18619568510986523
29	0xbfc82240affd8568	-0.18854530900265876
30	0xbfbb4f18b814411a	-0.10667566770667172
31	0xbfc804353633db1f	-0.18762841364488111
32	0xbfc79f46e6405bcb	-0.18454824679130719
33	0xbfcb1e6b3d58dd66	-0.21186581130471466
34	0xbfcbf483e6fc045c	-0.21839951303994354
35	0xbfce2f281f428aee	-0.2358141090999974
36	0xbfcaa150b3d5fbd4	-0.20804795056389358
37	0xbfc3a8fac4630bc0	-0.15359434689716345
38	0xbfcffa8df2f152cc	-0.24983381617007294
39	0x3fd3bebc2d72e563	0.3085165447078763
40	0xbfc814eec84d82a9	-0.18813881664666113
41	0xbf8057f5361b1571	-0.007980266297986845
42	0xbfc21e6bf61e7773	-0.14155339734582703
43	0x3fc0cfddf4ec4755	0.13134359797600817
44	0xbfd0316ee12b971e	-0.25301715840611105
45	0xbfd7c8987995710c	-0.3716183841077203
46	0x3fc106c80411f421	0.13301944922196277
47	0xbfc86f8597fb79af	-0.1909033767796706
48	0x3fd1a1ac2d678682	0.2754927104379946
49	0xbfcb819e1f1ad4e7	-0.21489311713018042
50	0xbfca35d1bd97f23c	-0.204767434668513
51	0xbfca5c2279818d00	-0.205936726884012
52	0x3fdf3d65cc1a137c	0.4881224148924088
53	0xbfcb0e7d396407b8	-0.211379673979591
54	0xbfc54127bc05db7e	-0.16605087929539403
55	0xbfcd1dd6234aeb51	-0.22747303698801116
56	0xbfc6f97d5d6dec41	-0.1794888216207671
57	0x3fcdc3931371de4c	0.23253096055462874
58	0xbfd798c6708ad1a0	-0.3686996554418105
59	0x3fca5138cf97099b	0.20560369621496197
60	0xbfcb16ba14b31b9f	-0.21163106928562755
61	0xbfc053de06461180	-0.1275594263680766
62	0xbf980fab52bc5cb2	-0.0234972733734053
63	0xbfc9df54578d2a70	-0.2021279742715083
64	0x3fa7ac4f87d98d0c	0.0462365010578428
65	0xbfcadc7c3ec1d9b3	-0.2098536783630159
66	0x3fd3fecea0848668	0.3124271934085301
67	0xbfca7375344db678	-0.20664849332699808
68	0x3fe4ed5d65bb4c53	0.6539751994081463
69	0xbfc72b32366aeaea	-0.1810057416640441
70	0xbfc1f6927dde367c	-0.1403372873868881
71	0xbfc7181ccc5d2665	-0.18042335489944886
72	0xbfd145744c20284c	-0.2698641532339294
73	0xbfc7dc50095cfa59	-0.1864109082907415
74	0xbfccff60ec092040	-0.22654353642633573
75	0xbfc136976f69d8ae	-0.13447850170240855
76	0xbfc3a18f72121730	-0.15336793012482408
77	0xbfc6c6be5b56bfbb	-0.1779401727667372
78	0x3fbb77d105a90a19	0.10729700458708925
79	0xbfc3aa52269bd3ad	-0.1536352814215695
80	0xbfccda9626610f2e	-0.22542073129636137
81	0xbfd1310f3ccd5f87	-0.2686193555614342
82	0x3fbd5ab92a9dc44b	0.11466557779728352
83	0xbfcc1aa3b6d2de74	-0.21956297327936947
84	0x3fd0ad1ce61fac17	0.2605659720708799
85	0xbfcfe698464f6ef6	-0.24922469552154042
86	0xbfc634b7ce01c69b	-0.17348382529194314
87	0xbfc2ef4f7ed1830f	-0.14792817776017173
88	0xbfbc5c8c83d63a20	-0.11078718393967124
89	0x3fde2a23f92bdcf6	0.47132205327166277
90	0x3fd51b72d0973a3a	0.32980032320202535
91	0xbfcf78b162df78d4	-0.24587075546054982
92	0xbfb75c83cf3c99c4	-0.09125541505327478
93	0xbfd0e1b73d6ce51e	-0.2637765979630603
94	0xbfcad7829543a996	-0.20970184601112568
95	0x3fbc670965c75ba3	0.11094721541245049
96	0xbfcc0728c4184a7d	-0.21896848273225436
97	0xbfca423a281833f3	-0.2051460929655203
98	0xbfd192ef4a5b4486	-0.27459318410280564
99	0xbfd2910c5c477f98	-0.2901030446209858
100	0xbfd2ee63d7221149	-0.2958001709851215
101	0xbfd8631c7a726502	-0.38104927022648394
102	0xbfc9f383527e4de0	-0.2027439263152777
103	0xbfc3583a88d3791e	-0.15113002472839637
104	0xbf8a938dde0489b5	-0.012976749742453867
105	0xbfca1dd7b9250919	-0.20403572597758382
106	0x3fd39fbe6a57acc4	0.3066249884129315
107	0xbfd13b7b70c8054c	-0.2692555047397789
108	0xbfd095febc4efd66	-0.2591549719763492
109	0xbfc7325c83e58c7f	-0.18122440758006417
110	0xbfce19d60e561b3e	-0.23516345691697355
111	0xbfd1bfd3c8715ea6	-0.277333207840892
112	0x3fd6a72dedbb8110	0.3539538213353959
113	0xbfcd20cd621cebe7	-0.22756354609177196
114	0xbfc7a82f8d989119	-0.18482012189736777
115	0xbfc239f7a90572cc	-0.14239402535431223
116	0xbfc6076b0bb2ee5d	-0.17210138388860488
117	0x3fc8c280bb8be9b8	0.19343575627847343
118	0xbfc8e9354533d899	-0.1946169460204075
119	0xbfc493c6b50d673f	-0.16075977173277953
120	0xbfc1049386661abe	-0.1329521566624034
121	0x3fa7e1d93bd543a1	0.046644962838974686
122	0x3fb10b61ea71a3bd	0.06657993291595594
123	0x3fa1aefc541b4144	0.034538159624960346
124	0xbf9c3b3493f281a2	-0.027569600610719676
125	0x3fde8e986e97ffcc	0.47745333480997654
126	0x3fa8bd6f11cc41c3	0.04832026569613703
127	0xbfd0440de7f0bec1	-0.25415370607786875
128	0xbfca9b617ce29997	-0.20786684606464398
129	0xbfce81a211a56393	-0.23833108770011488
130	0x3fd2ba8f95cb7056	0.29263677242648123
131	0xbfce8ccf3150f831	-0.23867216022512275
132	0xbfc54b42d6081256	-0.16635928583868304
133	0xbfc97dca273f78bb	-0.19915129581835864
134	0xbfd1e3290e9c725c	-0.27948976923815905
135	0xbf7abc774747879a	-0.0065273913682818655
136	0xbfe613938c06dffe	-0.6898896918200987
137	0xbfd0b1d8c5deb636	-0.2608549053501038
138	0xbfcdfaa05707a6b0	-0.23421100854402743
139	0xbfbede136ba8af4f	-0.12057610872642253
140	0xbfc9eca08b90192c	-0.2025337869128604
141	0xbfc4f2a861f9334b	-0.16365532668933222
142	0xbfc66abb9b7f93f8	-0.17513222782795856
143	0xbfaf647bc71b6b80	-0.06131350331789687
144	0xbfc94370990b8276	-0.1973706004419175
145	0x3fa2e92896b2f24a	0.03693510856235045
146	0xbfc5128947e53e64	-0.16462818155786174
147	0xbfcb605d481f3dcf	-0.21387830754836876
148	0xbfc6bb3063602f4a	-0.17758755543069987
149	0xbfc41ec1b56653f3	-0.15718861920745972
150	0x3fd52870657d398e	0.33059320365000466
151	0xbfc861bf115f84e4	-0.19048298214241932
152	0xbfca037bda0ebf9f	-0.20323131701797778
153	0xbfcd54be8ff682d3	-0.2291486933654797
154	0xbfd00f004acb57c4	-0.25091559700137744
155	0xbfca1ea4c75f9718	-0.20406017050771008
156	0xbfc8ab860f529d0c	-0.19273448703936713
157	0xbf811e1575e3eb79	-0.008358161602236557
158	0xbfc8c77320f4e65a	-0.1935867224618047
159	0xbfbf7c5777ce04d5	-0.12299105334206513
160	0xbfa0bdaf0af560b5	-0.0326971722485622
161	0x3fc79d168f98ed75	0.18448144923773283
162	0xbfca62cd4803d4b7	-0.206140194095189
163	0xbfcc0d25f06f05c1	-0.21915125121999604
164	0xbfcd37a2cf4befe2	-0.22826037523179737
165	0xbfc4d8f5fe619579	-0.16287112160641096
166	0xbfd1ad8691aa3de3	-0.2762161657819588
167	0x3f9e652322cb9e00	0.02968268298982757
168	0xbfd1622b47256c6a	-0.27161676357145004
169	0xbfb7bfdf3a44a072	-0.0927714841133154
170	0x3fc310674dc1031d	0.14893809601382993
171	0xbfc399947d53110a	-0.15312439078673662
172	0xbfc88fbf5c87c794	-0.1918868257339993
173	0x3fcce8ed1abca937	0.22585834317698936
174	0xbfcc0bd47749601e	-0.21911102127592214
175	0xbfc48120f839f020	-0.16019069786477846
176	0xbfc1affc22ee81f9	-0.13818313317916855
177	0xbfd3dd637ad0beff	-0.31038748735134897
178	0xbfc58db6f3686371	-0.16838728795189753
179	0xbfc94bc1477c92dc	-0.19762435904080788
180	0xbfcb80406734c99b	-0.21485142745366378
181	0xbfb0dbf7f63c091f	-0.06585645448288745
182	0xbfc69b2f31b5ee44	-0.17661085059431703
183	0xbfc5083b7d7c759f	-0.16431373240713484
184	0xbfcbfec41ce22524	-0.2187123433143735
185	0x3fd63e725791104e	0.3475614409583202
186	0xbfd023910fa520f8	-0.25217081573329336
187	0xbfc544a1d2cb63ed	-0.16615698616695287
188	0xbfd889e39a128bd5	-0.3834160809148533
189	0xbfcec8f7570f0bcc	-0.2405080008594197
190	0xbfc7925863d206d6	-0.18415360330623426
191	0x3fe1b77e6d538105	0.5536491523053263
192	0x3fbad9466d03a6d4	0.10487785493355811
193	0x3fb30eacf87a1996	0.07444268289882525
194	0xbfc599fb1b63121b	-0.1687616237378656
195	0xbfcc01988ae35d83	-0.2187987020649694
196	0xbfc1c4e266135f4f	-0.1388209341446278
197	0xbfc995bda177c4be	-0.19988222488567503
198	0xbfcdc75f695b503c	-0.23264687198991563
199	0xbfcb2b887cccfaca	-0.21226602643760933
200	0xbfd24925d044c3ce	-0.2857145818589374
201	0xbfa4b8489f01f549	-0.040468472871888546
202	0xbfc1b8c8f489ec45	-0.1384516901051446
203	0xbfaa75bedae20b2b	-0.05167957708274281
204	0x3f791b7159c6fdd2	0.006129687095778507
205	0xbfd60a4d585c9167	-0.34437879208623773
206	0xbfd346dcf9a4fafc	-0.30120014552441865
207	0xbfcc21ac355b6b56	-0.21977760892226667
208	0xbfc855f4e22ea485	-0.19012318653156882
209	0xbf947e1a7629ae04	-0.020012296163640655
210	0x3fa920b4a4dc95aa	0.04907764923545284
211	0x3fda665e7737bca0	0.4124981083140913
212	0xbfca93fe560a30ea	-0.20764140320932906
213	0xbfd1c29106e73ffd	-0.2775003974356876
214	0xbfce476b4eddd8a5	-0.23655454016597335
215	0xbfcdf563710c8b96	-0.23405116100283568
216	0xbfc6d8d1fe1ccdb1	-0.17849182994687632
217	0xbfcd48e64b7a3dac	-0.22878721890854814
218	0xbfc7f033ed8c2cee	-0.18701790904046994
219	0xbfcf6123ee700a92	-0.24515198843444758
220	0xbfd0fc0114c0896d	-0.26538111712047546
221	0xbfc969456d628984	-0.1985251220804224
222	0xbfc7efd182055915	-0.18700617645908638
223	0xbfc8673663df35f6	-0.19064979435499624
224	0xbfcc484672d0f4e0	-0.22095566374074505
225	0xbfc953031b3f3e1e	-0.1978458293001361
226	0xbfcb08437a2be4ac	-0.2111896845379183
227	0xbfc8a5bede166914	-0.19255815357320982
228	0x3fd46e917e080a28	0.3192485552573623
229	0xbfc28b1f1b8ce941	-0.14487065167652172
230	0xbf7d5e243be2afb2	-0.0071698584926415555
231	0x3fb8015c9092ce62	0.09377077607751397
232	0xbfd107ae032a9f1c	-0.2660937338755376
233	0xbfc97504424a73ff	-0.19888356434685758
234	0xbfaa5e0730eb863f	-0.05149862739723376
235	0xbfc56f57d614263b	-0.16746042206823283
236	0xbfba46915543ea0b	-0.10263927776023977
237	0xbfc7d3fe71813550	-0.1861570409986748
238	0xbfca7c49220545fc	-0.2069178978077132
239	0xbfc3b05479959e70	-0.15381866394749322
240	0xbfcc710ea504fac7	-0.22220023210134895
241	0xbfcd6051fea47a3d	-0.2295019620296034
242	0xbfcbf138100412ca	-0.2182989195063299
243	0xbfcea54218377b65	-0.23941827948052744
244	0xbfc68c401e6f5745	-0.17615510450439778
245	0xbfcbf2433dc08967	-0.2183307696842107
246	0xbfc7d9d9ffa9bdca	-0.18633580192134352
247	0xbfca329ad198c95c	-0.204669334737967
248	0xbfc9ead724d4c91c	-0.20247926042936448
249	0x3fb245e2881fc356	0.07137885878888758
250	0xbfa0f58d6b3598af	-0.03312341626842518
251	0xbfc14c73a6234be5	-0.13514562236977593
252	0x3fc350b09fc07f3a	0.15089996147525558
253	0x3fd6c75b552ae3ec	0.35591777150290116
254	0xbfcdbfa672901923	-0.23241119951144026
255	0xbfce186400d35985	-0.23511934318839792
